…
      sampler {
        min_scale: 0.3
        max_scale: 1
        min_aspect_ratio: 0.5
        max_aspect_ratio: 2
      }
      sample_constraint {
        min_jaccard_overlap: 0.9
      }
      max_sample: 1
      max_trials: 50
    }
    batch_sampler {
      sampler {
        min_scale: 0.3
        max_scale: 1
        min_aspect_ratio: 0.5
        max_aspect_ratio: 2
      }
      sample_constraint {
        max_jaccard_overlap: 1
      }
      max_sample: 1
      max_trials: 50
    }
    label_map_file: "data/labelmap_yuuav.prototxt"
  }
}
layer {
  name: "conv1_1"
  type: "Convolution"
  bottom: "data"
  top: "conv1_1"
  param {
    lr_mult: 1
    decay_mult: 1
  }
  param {
    lr_mult: 2
    decay_mult: 0
  }
  convolution_param {
    num_output: 64
    pad: 1
    kernel_size: 3
    weight_filler {
      type: "xavier"
    }
    bias_filler {
      type: "constant"
      value: 0
    }
  }
}
layer {
  name: "relu1_1"
  type: "ReLU"
  bottom: "conv1_1"
  top: "conv1_1"
}
layer {
  name: "conv1_2"
  type: "Convolution"
  bottom: "conv1_1"
  top: "conv1_2"
  param {
    lr_mult: 1
    decay_mult: 1
  }
  param {
    lr_mult: 2
    decay_mult: 0
  }
  convolution_param {
    num_output: 64
    pad: 1
    kernel_size: 3
    weight_filler {
      type: "xavier"
    }
    bias_filler {
      type: "constant"
      value: 0
    }
  }
}
layer {
  name: "relu1_2"
  type: "ReLU"
  bottom: "conv1_2"
  top: "conv1_2"
}
layer {
  name: "pool1"
  type: "Pooling"
  bottom: "conv1_2"
  top: "pool1"
  pooling_param {
    pool: MAX
    kernel_size: 2
    stride: 2
  }
}
layer {
  name: "conv2_1"
  type: "Convolution"
  bottom: "pool1"
  top: "conv2_1"
  param {
    lr_mult: 1
    decay_mult: 1
  }
  param {
    lr_mult: 2
    decay_mult: 0
  }
  convolution_param {
    num_output: 128
    pad: 1
    kernel_size: 3
    weight_filler {
      type: "xavier"
    }
    bias_filler {
      type: "constant"
      value: 0
    }
  }
}
layer {
  name: "relu2_1"
  type: "ReLU"
  bottom: "conv2_1"
  top: "conv2_1"
}
layer {
  name: "conv2_2"
  type: "Convolution"
  bottom: "conv2_1"
  top: "conv2_2"
  param {
    lr_mult: 1
    decay_mult: 1
  }
  param {
    lr_mult: 2
    decay_mult: 0
  }
  convolution_param {
    num_output: 128
    pad: 1
    kernel_size: 3
    weight_filler {
      type: "xavier"
    }
    bias_filler {
      type: "constant"
      value: 0
    }
  }
}
layer {
  name: "relu2_2"
  type: "ReLU"
  bottom: "conv2_2"
  top: "conv2_2"
}
layer {
  name: "pool2"
  type: "Pooling"
  bottom: "conv2_2"
  top: "pool2"
  pooling_param {
    pool: MAX
    kernel_size: 2
    stride: 2
  }
}
layer {
  name: "conv3_1"
  type: "Convolution"
  bottom: "pool2"
  top: "conv3_1"
  param {
    lr_mult: 1
    decay_mult: 1
  }
  param {
    lr_mult: 2
    decay_mult: 0
  }
  convolution_param {
    num_output: 256
    pad: 1
    kernel_size: 3
    weight_filler {
      type: "xavier"
    }
    bias_filler {
      type: "constant"
      value: 0
    }
  }
}
layer {
  name: "relu3_1"
  type: "ReLU"
  bottom: "conv3_1"
  top: "conv3_1"
}
layer {
  name: "conv3_2"
  type: "Convolution"
  bottom: "conv3_1"
  top: "conv3_2"
  param {
    lr_mult: 1
    decay_mult: 1
  }
  param {
    lr_mult: 2
    decay_mult: 0
  }
  convolution_param {
    num_output: 256
    pad: 1
    kernel_size: 3
    weight_filler {
      type: "xavier"
    }
    bias_filler {
      type: "constant"
      value: 0
    }
  }
}
layer {
  name: "relu3_2"
  type: "ReLU"
  bottom: "conv3_2"
  top: "conv3_2"
}
layer {
  name: "conv3_3"
  type: "Convolution"
  bottom: "conv3_2"
  top: "conv3_3"
  param {
    lr_mult: 1
    decay_mult: 1
  }
  param {
    lr_mult: 2
    decay_mult: 0
  }
  convolution_param {
    num_output: 256
    pad: 1
    kernel_size: 3
    weight_filler {
      type: "xavier"
    }
    bias_filler {
      type: "constant"
      value: 0
    }
  }
}
layer {
  name: "relu3_3"
  type: "ReLU"
  bottom: "conv3_3"
  top: "conv3_3"
}
layer {
  name: "pool3"
  type: "Pooling"
  bottom: "conv3_3"
  top: "pool3"
  pooling_param {
    pool: MAX
    kernel_size: 2
    stride: 2
  }
}
layer {
  name: "conv4_1"
  type: "Convolution"
  bottom: "pool3"
  top: "conv4_1"
  param {
    lr_mult: 1
    decay_mult: 1
  }
  param {
    lr_mult: 2
    decay_mult: 0
  }
  convolution_param {
    num_output: 512
    pad: 1
    kernel_size: 3
    weight_filler {
      type: "xavier"
    }
    bias_filler {
      type: "constant"
      value: 0
    }
  }
}
layer {
  name: "relu4_1"
  type: "ReLU"
  bottom: "conv4_1"
  top: "conv4_1"
}
layer {
  name: "conv4_2"
  type: "Convolution"
  bottom: "conv4_1"
  top: "conv4_2"
  param {
    lr_mult: 1
    decay_mult: 1
  }
  param {
    lr_mult: 2
    decay_mult: 0
  }
  convolution_param {
    num_output: 512
    pad: 1
    kernel_size: 3
    weight_filler {
      type: "xavier"
    }
    bias_filler {
      type: "constant"
      value: 0
    }
  }
}
layer {
  name: "relu4_2"
  type: "ReLU"
  bottom: "conv4_2"
  top: "conv4_2"
}
layer {
  name: "conv4_3"
  type: "Convolution"
  bottom: "conv4_2"
  top: "conv4_3"
  param {
    lr_mult: 1
    decay_mult: 1
  }
  param {
    lr_mult: 2
    decay_mult: 0
  }
  convolution_param {
    num_output: 512
    pad: 1
    kernel_size: 3
    weight_filler {
      type: "xavier"
    }
    bias_filler {
      type: "constant"
      value: 0
    }
  }
}
layer {
  name: "relu4_3"
  type: "ReLU"
  bottom: "conv4_3"
  top: "conv4_3"
}
layer {
  name: "pool4"
  type: "Pooling"
  bottom: "conv4_3"
  top: "pool4"
  pooling_param {
    pool: MAX
    kernel_size: 2
    stride: 2
  }
}
layer {
  name: "conv5_1"
  type: "Convolution"
  bottom: "pool4"
  top: "conv5_1"
  param {
    lr_mult: 1
    decay_mult: 1
  }
  param {
    lr_mult: 2
    decay_mult: 0
  }
  convolution_param {
    num_output: 512
    pad: 1
    kernel_size: 3
    weight_filler {
      type: "xavier"
    }
    bias_filler {
      type: "constant"
      value: 0
    }
    dilation: 1
  }
}
layer {
  name: "relu5_1"
  type: "ReLU"
  bottom: "conv5_1"
  top: "conv5_1"
}
layer {
  name: "conv5_2"
  type: "Convolution"
  bottom: "conv5_1"
  top: "conv5_2"
  param {
    lr_mult: 1
    decay_mult: 1
  }
  param {
    lr_mult: 2
    decay_mult: 0
  }
  convolution_param {
    num_output: 512
    pad: 1
    kernel_size: 3
    weight_filler {
      type: "xavier"
    }
    bias_filler {
      type: "constant"
      value: 0
    }
    dilation: 1
  }
}
layer {
  name: "relu5_2"
  type: "ReLU"
  bottom: "conv5_2"
  top: "conv5_2"
}
layer {
  name: "conv5_3"
  type: "Convolution"
  bottom: "conv5_2"
  top: "conv5_3"
  param {
    lr_mult: 1
    decay_mult: 1
  }
  param {
    lr_mult: 2
    decay_mult: 0
  }
  convolution_param {
    num_output: 512
    pad: 1
    kernel_size: 3
    weight_filler {
      type: "xavier"
    }
    bias_filler {
      type: "constant"
      value: 0
    }
    dilation: 1
  }
}
layer {
  name: "relu5_3"
  type: "ReLU"
  bottom: "conv5_3"
  top: "conv5_3"
}
layer {
  name: "pool5"
  type: "Pooling"
  bottom: "conv5_3"
  top: "pool5"
  pooling_param {
    pool: MAX
    kernel_size: 3
    stride: 1
    pad: 1
  }
}
layer {
  name: "fc6"
  type: "Convolution"
  bottom: "pool5"
  top: "fc6"
  param {
    lr_mult: 1
    decay_mult: 1
  }
  param {
    lr_mult: 2
    decay_mult: 0
  }
  convolution_param {
    num_output: 1024
    pad: 6
    kernel_size: 3
    weight_filler {
      type: "xavier"
    }
    bias_filler {
      type: "constant"
      value: 0
    }
    dilation: 6
  }
}
layer {
  name: "relu6"
  type: "ReLU"
  bottom: "fc6"
  top: "fc6"
}
layer {
  name: "fc7"
  type: "Convolution"
  bottom: "fc6"
  top: "fc7"
  param {
    lr_mult: 1
    decay_mult: 1
  }
  param {
    lr_mult: 2
    decay_mult: 0
  }
  convolution_param {
    num_output: 1024
    kernel_size: 1
    weight_filler {
      type: "xavier"
    }
    bias_filler {
      type: "constant"
      value: 0
    }
  }
}
layer {
  name: "relu7"
  type: "ReLU"
  bottom: "fc7"
  top: "fc7"
}
layer {
  name: "conv6_1"
  type: "Convolution"
  bottom: "fc7"
  top: "conv6_1"
  param {
    lr_mult: 1
    decay_mult: 1
  }
  param {
    lr_mult: 2
    decay_mult: 0
  }
  convolution_param {
    num_output: 256
    pad: 0
    kernel_size: 1
    stride: 1
    weight_filler {
      type: "xavier"
    }
    bias_filler {
      type: "constant"
      value: 0
    }
  }
}
layer {
  name: "conv6_1_relu"
  type: "ReLU"
  bottom: "conv6_1"
  top: "conv6_1"
}
layer {
  name: "conv6_2"
  type: "Convolution"
  bottom: "conv6_1"
  top: "conv6_2"
  param {
    lr_mult: 1
    decay_mult: 1
  }
  param {
    lr_mult: 2
    decay_mult: 0
  }
  convolution_param {
    num_output: 512
    pad: 1
    kernel_size: 3
    stride: 2
    weight_filler {
      type: "xavier"
    }
    bias_filler {
      type: "constant"
      value: 0
    }
  }
}
layer {
  name: "conv6_2_relu"
  type: "ReLU"
  bottom: "conv6_2"
  top: "conv6_2"
}
layer {
  name: "conv7_1"
  type: "Convolution"
  bottom: "conv6_2"
  top: "conv7_1"
  param {
    lr_mult: 1
    decay_mult: 1
  }
  param {
    lr_mult: 2
    decay_mult: 0
  }
  convolution_param {
    num_output: 128
    pad: 0
    kernel_size: 1
    stride: 1
    weight_filler {
      type: "xavier"
    }
    bias_filler {
      type: "constant"
      value: 0
    }
  }
}
layer {
  name: "conv7_1_relu"
  type: "ReLU"
  bottom: "conv7_1"
  top: "conv7_1"
}
layer {
  name: "conv7_2"
  type: "Convolution"
  bottom: "conv7_1"
  top: "conv7_2"
  param {
    lr_mult: 1
    decay_mult: 1
  }
  param {
    lr_mult: 2
    decay_mult: 0
  }
  convolution_param {
    num_output: 256
    pad: 1
    kernel_size: 3
    stride: 2
    weight_filler {
      type: "xavier"
    }
    bias_filler {
      type: "constant"
      value: 0
    }
  }
}
layer {
  name: "conv7_2_relu"
  type: "ReLU"
  bottom: "conv7_2"
  top: "conv7_2"
}
layer {
  name: "conv8_1"
  type: "Convolution"
  bottom: "conv7_2"
  top: "conv8_1"
  param {
    lr_mult: 1
    decay_mult: 1
  }
  param {
    lr_mult: 2
    decay_mult: 0
  }
  convolution_param {
    num_output: 128
    pad: 0
    kernel_size: 1
    stride: 1
    weight_filler {
      type: "xavier"
    }
    bias_filler {
      type: "constant"
      value: 0
    }
  }
}
layer {
  name: "conv8_1_relu"
  type: "ReLU"
  bottom: "conv8_1"
  top: "conv8_1"
}
layer {
  name: "conv8_2"
  type: "Convolution"
  bottom: "conv8_1"
  top: "conv8_2"
  param {
    lr_mult: 1
    decay_mult: 1
  }
  param {
    lr_mult: 2
    decay_mult: 0
  }
  convolution_param {
    num_output: 256
    pad: 0
    kernel_size: 3
    stride: 1
    weight_filler {
      type: "xavier"
    }
    bias_filler {
      type: "constant"
      value: 0
    }
  }
}
layer {
  name: "conv8_2_relu"
  type: "ReLU"
  bottom: "conv8_2"
  top: "conv8_2"
}
layer {
  name: "conv9_1"
  type: "Convolution"
  bottom: "conv8_2"
  top: "conv9_1"
  param {
    lr_mult: 1
    decay_mult: 1
  }
  param {
    lr_mult: 2
    decay_mult: 0
  }
  convolution_param {
    num_output: 128
    pad: 0
    kernel_size: 1
    stride: 1
    weight_filler {
      type: "xavier"
    }
    bias_filler {
      type: "constant"
      value: 0
    }
  }
}
layer {
  name: "conv9_1_relu"
  type: "ReLU"
  bottom: "conv9_1"
  top: "conv9_1"
}
layer {
  name: "conv9_2"
  type: "Convolution"
  bottom: "conv9_1"
  top: "conv9_2"
  param {
    lr_mult: 1
    decay_mult: 1
  }
  param {
    lr_mult: 2
    decay_mult: 0
  }
  convolution_param {
    num_output: 256
    pad: 0
    kernel_size: 3
    stride: 1
    weight_filler {
      type: "xavier"
    }
    bias_filler {
      type: "constant"
      value: 0
    }
  }
}
layer {
  name: "conv9_2_relu"
  type: "ReLU"
  bottom: "conv9_2"
  top: "conv9_2"
}
layer {
  name: "conv4_3_norm"
  type: "Normalize"
  bottom: "conv4_3"
  top: "conv4_3_norm"
  norm_param {
    across_spatial: false
    scale_filler {
      type: "constant"
      value: 20
    }
    channel_shared: false
  }
}
layer {
  name: "conv4_3_norm_mbox_loc"
  type: "Convolution"
  bottom: "conv4_3_norm"
  top: "conv4_3_norm_mbox_loc"
  param {
    lr_mult: 1
    decay_mult: 1
  }
  param {
    lr_mult: 2
    decay_mult: 0
  }
  convolution_param {
    num_output: 16
    pad: 1
    kernel_size: 3
    stride: 1
    weight_filler {
      type: "xavier"
    }
    bias_filler {
      type: "constant"
      value: 0
    }
  }
}
layer {
  name: "conv4_3_norm_mbox_loc_perm"
  type: "Permute"
  bottom: "conv4_3_norm_mbox_loc"
  top: "conv4_3_norm_mbox_loc_perm"
  permute_param {
    order: 0
    order: 2
    order: 3
    order: 1
  }
}
layer {
  name: "conv4_3_norm_mbox_loc_flat"
  type: "Flatten"
  bottom: "conv4_3_norm_mbox_loc_perm"
  top: "conv4_3_norm_mbox_loc_flat"
  flatten_param {
    axis: 1
  }
}
layer {
  name: "conv4_3_norm_mbox_conf"
  type: "Convolution"
  bottom: "conv4_3_norm"
  top: "conv4_3_norm_mbox_conf"
  param {
    lr_mult: 1
    decay_mult: 1
  }
  param {
    lr_mult: 2
    decay_mult: 0
  }
  convolution_param {
    num_output: 92
    pad: 1
    kernel_size: 3
    stride: 1
    weight_filler {
      type: "xavier"
    }
    bias_filler {
      type: "constant"
      value: 0
    }
  }
}
layer {
  name: "conv4_3_norm_mbox_conf_perm"
  type: "Permute"
  bottom: "conv4_3_norm_mbox_conf"
  top: "conv4_3_norm_mbox_conf_perm"
  permute_param {
    order: 0
    order: 2
    order: 3
    order: 1
  }
}
layer {
  name: "conv4_3_norm_mbox_conf_flat"
  type: "Flatten"
  bottom: "conv4_3_norm_mbox_conf_perm"
  top: "conv4_3_norm_mbox_conf_flat"
  flatten_param {
    axis: 1
  }
}
layer {
  name: "conv4_3_norm_mbox_priorbox"
  type: "PriorBox"
  bottom: "conv4_3_norm"
  bottom: "data"
  top: "conv4_3_norm_mbox_priorbox"
  prior_box_param {
    min_size: 30
    max_size: 60
    aspect_ratio: 2
    flip: true
    clip: false
    variance: 0.1
    variance: 0.1
    variance: 0.2
    variance: 0.2
    step: 8
    offset: 0.5
  }
}
layer {
  name: "fc6_mbox_loc"
  type: "Convolution"
  bottom: "fc6"
  top: "fc6_mbox_loc"
  param {
    lr_mult: 1
    decay_mult: 1
  }
  param {
    lr_mult: 2
    decay_mult: 0
  }
  convolution_param {
    num_output: 24
    pad: 1
    kernel_size: 3
    stride: 1
    weight_filler {
      type: "xavier"
    }
    bias_filler {
      type: "constant"
      value: 0
    }
  }
}
layer {
  name: "fc6_mbox_loc_perm"
  type: "Permute"
  bottom: "fc6_mbox_loc"
  top: "fc6_mbox_loc_perm"
  permute_param {
    order: 0
    order: 2
    order: 3
    order: 1
  }
}
layer {
  name: "fc6_mbox_loc_flat"
  type: "Flatten"
  bottom: "fc6_mbox_loc_perm"
  top: "fc6_mbox_loc_flat"
  flatten_param {
    axis: 1
  }
}
layer {
  name: "fc6_mbox_conf"
  type: "Convolution"
  bottom: "fc6"
  top: "fc6_mbox_conf"
  param {
    lr_mult: 1
    decay_mult: 1
  }
  param {
    lr_mult: 2
    decay_mult: 0
  }
  convolution_param {
    num_output: 138
    pad: 1
    kernel_size: 3
    stride: 1
    weight_filler {
      type: "xavier"
    }
    bias_filler {
      type: "constant"
      value: 0
    }
  }
}
layer {
  name: "fc6_mbox_conf_perm"
  type: "Permute"
  bottom: "fc6_mbox_conf"
  top: "fc6_mbox_conf_perm"
  permute_param {
    order: 0
    order: 2
    order: 3
    order: 1
  }
}
layer {
  name: "fc6_mbox_conf_flat"
  type: "Flatten"
  bottom: "fc6_mbox_conf_perm"
  top: "fc6_mbox_conf_flat"
  flatten_param {
    axis: 1
  }
}
layer {
  name: "fc6_mbox_priorbox"
  type: "PriorBox"
  bottom: "fc6"
  bottom: "data"
  top: "fc6_mbox_priorbox"
  prior_box_param {
    min_size: 60
    max_size: 111
    aspect_ratio: 2
    aspect_ratio: 3
    flip: true
    clip: false
    variance: 0.1
    variance: 0.1
    variance: 0.2
    variance: 0.2
    step: 16
    offset: 0.5
  }
}
layer {
  name: "conv6_2_mbox_loc"
  type: "Convolution"
  bottom: "conv6_2"
  top: "conv6_2_mbox_loc"
  param {
    lr_mult: 1
    decay_mult: 1
  }
  param {
    lr_mult: 2
    decay_mult: 0
  }
  convolution_param {
    num_output: 24
    pad: 1
    kernel_size: 3
    stride: 1
    weight_filler {
      type: "xavier"
    }
    bias_filler {
      type: "constant"
      value: 0
    }
  }
}
layer {
  name: "conv6_2_mbox_loc_perm"
  type: "Permute"
  bottom: "conv6_2_mbox_loc"
  top: "conv6_2_mbox_loc_perm"
  permute_param {
    order: 0
    order: 2
    order: 3
    order: 1
  }
}
layer {
  name: "conv6_2_mbox_loc_flat"
  type: "Flatten"
  bottom: "conv6_2_mbox_loc_perm"
  top: "conv6_2_mbox_loc_flat"
  flatten_param {
    axis: 1
  }
}
layer {
  name: "conv6_2_mbox_conf"
  type: "Convolution"
  bottom: "conv6_2"
  top: "conv6_2_mbox_conf"
  param {
    lr_mult: 1
    decay_mult: 1
  }
  param {
    lr_mult: 2
    decay_mult: 0
  }
  convolution_param {
    num_output: 138
    pad: 1
    kernel_size: 3
    stride: 1
    weight_filler {
      type: "xavier"
    }
    bias_filler {
      type: "constant"
      value: 0
    }
  }
}
layer {
  name: "conv6_2_mbox_conf_perm"
  type: "Permute"
  bottom: "conv6_2_mbox_conf"
  top: "conv6_2_mbox_conf_perm"
  permute_param {
    order: 0
    order: 2
    order: 3
    order: 1
  }
}
layer {
  name: "conv6_2_mbox_conf_flat"
  type: "Flatten"
  bottom: "conv6_2_mbox_conf_perm"
  top: "conv6_2_mbox_conf_flat"
  flatten_param {
    axis: 1
  }
}
layer {
  name: "conv6_2_mbox_priorbox"
  type: "PriorBox"
  bottom: "conv6_2"
  bottom: "data"
  top: "conv6_2_mbox_priorbox"
  prior_box_param {
    min_size: 111
    max_size: 162
    aspect_ratio: 2
    aspect_ratio: 3
    flip: true
    clip: false
    variance: 0.1
    variance: 0.1
    variance: 0.2
    variance: 0.2
    step: 32
    offset: 0.5
  }
}
layer {
  name: "conv7_2_mbox_loc"
  type: "Convolution"
  bottom: "conv7_2"
  top: "conv7_2_mbox_loc"
  param {
    lr_mult: 1
    decay_mult: 1
  }
  param {
    lr_mult: 2
    decay_mult: 0
  }
  convolution_param {
    num_output: 24
    pad: 1
    kernel_size: 3
    stride: 1
    weight_filler {
      type: "xavier"
    }
    bias_filler {
      type: "constant"
      value: 0
    }
  }
}
layer {
  name: "conv7_2_mbox_loc_perm"
  type: "Permute"
  bottom: "conv7_2_mbox_loc"
  top: "conv7_2_mbox_loc_perm"
  permute_param {
    order: 0
    order: 2
    order: 3
    order: 1
  }
}
layer {
  name: "conv7_2_mbox_loc_flat"
  type: "Flatten"
  bottom: "conv7_2_mbox_loc_perm"
  top: "conv7_2_mbox_loc_flat"
  flatten_param {
    axis: 1
  }
}
layer {
  name: "conv7_2_mbox_conf"
  type: "Convolution"
  bottom: "conv7_2"
  top: "conv7_2_mbox_conf"
  param {
    lr_mult: 1
    decay_mult: 1
  }
  param {
    lr_mult: 2
    decay_mult: 0
  }
  convolution_param {
    num_output: 138
    pad: 1
    kernel_size: 3
    stride: 1
    weight_filler {
      type: "xavier"
    }
    bias_filler {
      type: "constant"
      value: 0
    }
  }
}
layer {
  name: "conv7_2_mbox_conf_perm"
  type: "Permute"
  bottom: "conv7_2_mbox_conf"
  top: "conv7_2_mbox_conf_perm"
  permute_param {
    order: 0
    order: 2
    order: 3
    order: 1
  }
}
layer {
  name: "conv7_2_mbox_conf_flat"
  type: "Flatten"
  bottom: "conv7_2_mbox_conf_perm"
  top: "conv7_2_mbox_conf_flat"
  flatten_param {
    axis: 1
  }
}
layer {
  name: "conv7_2_mbox_priorbox"
  type: "PriorBox"
  bottom: "conv7_2"
  bottom: "data"
  top: "conv7_2_mbox_priorbox"
  prior_box_param {
    min_size: 162
    max_size: 213
    aspect_ratio: 2
    aspect_ratio: 3
    flip: true
    clip: false
    variance: 0.1
    variance: 0.1
    variance: 0.2
    variance: 0.2
    step: 64
    offset: 0.5
  }
}
layer {
  name: "conv8_2_mbox_loc"
  type: "Convolution"
  bottom: "conv8_2"
  top: "conv8_2_mbox_loc"
  param {
    lr_mult: 1
    decay_mult: 1
  }
  param {
    lr_mult: 2
    decay_mult: 0
  }
  convolution_param {
    num_output: 16
    pad: 1
    kernel_size: 3
    stride: 1
    weight_filler {
      type: "xavier"
    }
    bias_filler {
      type: "constant"
      value: 0
    }
  }
}
layer {
  name: "conv8_2_mbox_loc_perm"
  type: "Permute"
  bottom: "conv8_2_mbox_loc"
  top: "conv8_2_mbox_loc_perm"
  permute_param {
    order: 0
    order: 2
    order: 3
    order: 1
  }
}
layer {
  name: "conv8_2_mbox_loc_flat"
  type: "Flatten"
  bottom: "conv8_2_mbox_loc_perm"
  top: "conv8_2_mbox_loc_flat"
  flatten_param {
    axis: 1
  }
}
layer {
  name: "conv8_2_mbox_conf"
  type: "Convolution"
  bottom: "conv8_2"
  top: "conv8_2_mbox_conf"
  param {
    lr_mult: 1
    decay_mult: 1
  }
  param {
    lr_mult: 2
    decay_mult: 0
  }
  convolution_param {
    num_output: 92
    pad: 1
    kernel_size: 3
    stride: 1
    weight_filler {
      type: "xavier"
    }
    bias_filler {
      type: "constant"
      value: 0
    }
  }
}
layer {
  name: "conv8_2_mbox_conf_perm"
  type: "Permute"
  bottom: "conv8_2_mbox_conf"
  top: "conv8_2_mbox_conf_perm"
  permute_param {
    order: 0
    order: 2
    order: 3
    order: 1
  }
}
layer {
  name: "conv8_2_mbox_conf_flat"
  type: "Flatten"
  bottom: "conv8_2_mbox_conf_perm"
  top: "conv8_2_mbox_conf_flat"
  flatten_param {
    axis: 1
  }
}
layer {
  name: "conv8_2_mbox_priorbox"
  type: "PriorBox"
  bottom: "conv8_2"
  bottom: "data"
  top: "conv8_2_mbox_priorbox"
  prior_box_param {
    min_size: 213
    max_size: 264
    aspect_ratio: 2
    flip: true
    clip: false
    variance: 0.1
    variance: 0.1
    variance: 0.2
    variance: 0.2
    step: 100
    offset: 0.5
  }
}
layer {
  name: "conv9_2_mbox_loc"
  type: "Convolution"
  bottom: "conv9_2"
  top: "conv9_2_mbox_loc"
  param {
    lr_mult: 1
    decay_mult: 1
  }
  param {
    lr_mult: 2
    decay_mult: 0
  }
  convolution_param {
    num_output: 16
    pad: 1
    kernel_size: 3
    stride: 1
    weight_filler {
      type: "xavier"
    }
    bias_filler {
      type: "constant"
      value: 0
    }
  }
}
layer {
  name: "conv9_2_mbox_loc_perm"
  type: "Permute"
  bottom: "conv9_2_mbox_loc"
  top: "conv9_2_mbox_loc_perm"
  permute_param {
    order: 0
    order: 2
    order: 3
    order: 1
  }
}
layer {
  name: "conv9_2_mbox_loc_flat"
  type: "Flatten"
  bottom: "conv9_2_mbox_loc_perm"
  top: "conv9_2_mbox_loc_flat"
  flatten_param {
    axis: 1
  }
}
layer {
  name: "conv9_2_mbox_conf"
  type: "Convolution"
  bottom: "conv9_2"
  top: "conv9_2_mbox_conf"
  param {
    lr_mult: 1
    decay_mult: 1
  }
  param {
    lr_mult: 2
    decay_mult: 0
  }
  convolution_param {
    num_output: 92
    pad: 1
    kernel_size: 3
    stride: 1
    weight_filler {
      type: "xavier"
    }
    bias_filler {
      type: "constant"
      value: 0
    }
  }
}
layer {
  name: "conv9_2_mbox_conf_perm"
  type: "Permute"
  bottom: "conv9_2_mbox_conf"
  top: "conv9_2_mbox_conf_perm"
  permute_param {
    order: 0
    order: 2
    order: 3
    order: 1
  }
}
layer {
  name: "conv9_2_mbox_conf_flat"
  type: "Flatten"
  bottom: "conv9_2_mbox_conf_perm"
  top: "conv9_2_mbox_conf_flat"
  flatten_param {
    axis: 1
  }
}
layer {
  name: "conv9_2_mbox_priorbox"
  type: "PriorBox"
  bottom: "conv9_2"
  bottom: "data"
  top: "conv9_2_mbox_priorbox"
  prior_box_param {
    min_size: 264
    max_size: 315
    aspect_ratio: 2
    flip: true
    clip: false
    variance: 0.1
    variance: 0.1
    variance: 0.2
    variance: 0.2
    step: 300
    offset: 0.5
  }
}
layer {
  name: "mbox_loc"
  type: "Concat"
  bottom: "conv4_3_norm_mbox_loc_flat"
  bottom: "fc6_mbox_loc_flat"
  bottom: "conv6_2_mbox_loc_flat"
  bottom: "conv7_2_mbox_loc_flat"
  bottom: "conv8_2_mbox_loc_flat"
  bottom: "conv9_2_mbox_loc_flat"
  top: "mbox_loc"
  concat_param {
    axis: 1
  }
}
layer {
  name: "mbox_conf"
  type: "Concat"
  bottom: "conv4_3_norm_mbox_conf_flat"
  bottom: "fc6_mbox_conf_flat"
  bottom: "conv6_2_mbox_conf_flat"
  bottom: "conv7_2_mbox_conf_flat"
  bottom: "conv8_2_mbox_conf_flat"
  bottom: "conv9_2_mbox_conf_flat"
  top: "mbox_conf"
  concat_param {
    axis: 1
  }
}
layer {
  name: "mbox_priorbox"
  type: "Concat"
  bottom: "conv4_3_norm_mbox_priorbox"
  bottom: "fc6_mbox_priorbox"
  bottom: "conv6_2_mbox_priorbox"
  bottom: "conv7_2_mbox_priorbox"
  bottom: "conv8_2_mbox_priorbox"
  bottom: "conv9_2_mbox_priorbox"
  top: "mbox_priorbox"
  concat_param {
    axis: 2
  }
}
layer {
  name: "mbox_loss"
  type: "MultiBoxLoss"
  bottom: "mbox_loc"
  bottom: "mbox_conf"
  bottom: "mbox_priorbox"
  bottom: "label"
  top: "mbox_loss"
  include {
    phase: TRAIN
  }
  propagate_down: true
  propagate_down: true
  propagate_down: false
  propagate_down: false
  loss_param {
    normalization: VALID
  }
  multibox_loss_param {
    loc_loss_type: SMOOTH_L1
    conf_loss_type: SOFTMAX
    loc_weight: 1
    num_classes: 23
    share_location: true
    match_type: PER_PREDICTION
    overlap_threshold: 0.5
    use_prior_for_matching: true
    background_label_id: 0
    use_difficult_gt: true
    neg_pos_ratio: 3
    neg_overlap: 0.5
    code_type: CENTER_SIZE
    ignore_cross_boundary_bbox: false
    mining_type: MAX_NEGATIVE
  }
}
I0813 16:40:58.202919  1670 layer_factory.hpp:77] Creating layer data
I0813 16:40:58.203642  1670 net.cpp:100] Creating Layer data
I0813 16:40:58.203652  1670 net.cpp:408] data -> data
I0813 16:40:58.203676  1670 net.cpp:408] data -> label
I0813 16:40:58.205123  1693 db_lmdb.cpp:35] Opened lmdb data/yuuav/yuuav_trainval_lmdb
I0813 16:40:58.233187  1670 annotated_data_layer.cpp:62] output data size: 8,3,300,300
I0813 16:40:58.240504  1670 net.cpp:150] Setting up data
I0813 16:40:58.240526  1670 net.cpp:157] Top shape: 8 3 300 300 (2160000)
I0813 16:40:58.240530  1670 net.cpp:157] Top shape: 1 1 4 8 (32)
I0813 16:40:58.240532  1670 net.cpp:165] Memory required for data: 8640128
I0813 16:40:58.240548  1670 layer_factory.hpp:77] Creating layer data_data_0_split
I0813 16:40:58.240558  1670 net.cpp:100] Creating Layer data_data_0_split
I0813 16:40:58.240563  1670 net.cpp:434] data_data_0_split <- data
I0813 16:40:58.240572  1670 net.cpp:408] data_data_0_split -> data_data_0_split_0
I0813 16:40:58.240581  1670 net.cpp:408] data_data_0_split -> data_data_0_split_1
I0813 16:40:58.240586  1670 net.cpp:408] data_data_0_split -> data_data_0_split_2
I0813 16:40:58.240591  1670 net.cpp:408] data_data_0_split -> data_data_0_split_3
I0813 16:40:58.240594  1670 net.cpp:408] data_data_0_split -> data_data_0_split_4
I0813 16:40:58.240599  1670 net.cpp:408] data_data_0_split -> data_data_0_split_5
I0813 16:40:58.240603  1670 net.cpp:408] data_data_0_split -> data_data_0_split_6
I0813 16:40:58.240664  1670 net.cpp:150] Setting up data_data_0_split
I0813 16:40:58.240669  1670 net.cpp:157] Top shape: 8 3 300 300 (2160000)
I0813 16:40:58.240671  1670 net.cpp:157] Top shape: 8 3 300 300 (2160000)
I0813 16:40:58.240674  1670 net.cpp:157] Top shape: 8 3 300 300 (2160000)
I0813 16:40:58.240677  1670 net.cpp:157] Top shape: 8 3 300 300 (2160000)
I0813 16:40:58.240679  1670 net.cpp:157] Top shape: 8 3 300 300 (2160000)
I0813 16:40:58.240682  1670 net.cpp:157] Top shape: 8 3 300 300 (2160000)
I0813 16:40:58.240684  1670 net.cpp:157] Top shape: 8 3 300 300 (2160000)
I0813 16:40:58.240687  1670 net.cpp:165] Memory required for data: 69120128
I0813 16:40:58.240689  1670 layer_factory.hpp:77] Creating layer conv1_1
I0813 16:40:58.240700  1670 net.cpp:100] Creating Layer conv1_1
I0813 16:40:58.240702  1670 net.cpp:434] conv1_1 <- data_data_0_split_0
I0813 16:40:58.240708  1670 net.cpp:408] conv1_1 -> conv1_1
I0813 16:40:58.916003  1670 net.cpp:150] Setting up conv1_1
I0813 16:40:58.916021  1670 net.cpp:157] Top shape: 8 64 300 300 (46080000)
I0813 16:40:58.916024  1670 net.cpp:165] Memory required for data: 253440128
I0813 16:40:58.916040  1670 layer_factory.hpp:77] Creating layer relu1_1
I0813 16:40:58.916049  1670 net.cpp:100] Creating Layer relu1_1
I0813 16:40:58.916051  1670 net.cpp:434] relu1_1 <- conv1_1
I0813 16:40:58.916055  1670 net.cpp:395] relu1_1 -> conv1_1 (in-place)
I0813 16:40:58.916326  1670 net.cpp:150] Setting up relu1_1
I0813 16:40:58.916333  1670 net.cpp:157] Top shape: 8 64 300 300 (46080000)
I0813 16:40:58.916349  1670 net.cpp:165] Memory required for data: 437760128
I0813 16:40:58.916352  1670 layer_factory.hpp:77] Creating layer conv1_2
I0813 16:40:58.916360  1670 net.cpp:100] Creating Layer conv1_2
I0813 16:40:58.916363  1670 net.cpp:434] conv1_2 <- conv1_1
I0813 16:40:58.916368  1670 net.cpp:408] conv1_2 -> conv1_2
I0813 16:40:58.918449  1670 net.cpp:150] Setting up conv1_2
I0813 16:40:58.918473  1670 net.cpp:157] Top shape: 8 64 300 300 (46080000)
I0813 16:40:58.918475  1670 net.cpp:165] Memory required for data: 622080128
I0813 16:40:58.918481  1670 layer_factory.hpp:77] Creating layer relu1_2
I0813 16:40:58.918485  1670 net.cpp:100] Creating Layer relu1_2
I0813 16:40:58.918488  1670 net.cpp:434] relu1_2 <- conv1_2
I0813 16:40:58.918493  1670 net.cpp:395] relu1_2 -> conv1_2 (in-place)
I0813 16:40:58.918705  1670 net.cpp:150] Setting up relu1_2
I0813 16:40:58.918712  1670 net.cpp:157] Top shape: 8 64 300 300 (46080000)
I0813 16:40:58.918715  1670 net.cpp:165] Memory required for data: 806400128
I0813 16:40:58.918717  1670 layer_factory.hpp:77] Creating layer pool1
I0813 16:40:58.918721  1670 net.cpp:100] Creating Layer pool1
I0813 16:40:58.918725  1670 net.cpp:434] pool1 <- conv1_2
I0813 16:40:58.918727  1670 net.cpp:408] pool1 -> pool1
I0813 16:40:58.918771  1670 net.cpp:150] Setting up pool1
I0813 16:40:58.918786  1670 net.cpp:157] Top shape: 8 64 150 150 (11520000)
I0813 16:40:58.918789  1670 net.cpp:165] Memory required for data: 852480128
I0813 16:40:58.918792  1670 layer_factory.hpp:77] Creating layer conv2_1
I0813 16:40:58.918797  1670 net.cpp:100] Creating Layer conv2_1
I0813 16:40:58.918799  1670 net.cpp:434] conv2_1 <- pool1
I0813 16:40:58.918802  1670 net.cpp:408] conv2_1 -> conv2_1
I0813 16:40:58.919958  1670 net.cpp:150] Setting up conv2_1
I0813 16:40:58.919967  1670 net.cpp:157] Top shape: 8 128 150 150 (23040000)
I0813 16:40:58.919970  1670 net.cpp:165] Memory required for data: 944640128
I0813 16:40:58.919976  1670 layer_factory.hpp:77] Creating layer relu2_1
I0813 16:40:58.919981  1670 net.cpp:100] Creating Layer relu2_1
I0813 16:40:58.919984  1670 net.cpp:434] relu2_1 <- conv2_1
I0813 16:40:58.919987  1670 net.cpp:395] relu2_1 -> conv2_1 (in-place)
I0813 16:40:58.920354  1670 net.cpp:150] Setting up relu2_1
I0813 16:40:58.920362  1670 net.cpp:157] Top shape: 8 128 150 150 (23040000)
I0813 16:40:58.920366  1670 net.cpp:165] Memory required for data: 1036800128
I0813 16:40:58.920368  1670 layer_factory.hpp:77] Creating layer conv2_2
I0813 16:40:58.920374  1670 net.cpp:100] Creating Layer conv2_2
I0813 16:40:58.920377  1670 net.cpp:434] conv2_2 <- conv2_1
I0813 16:40:58.920382  1670 net.cpp:408] conv2_2 -> conv2_2
I0813 16:40:58.921998  1670 net.cpp:150] Setting up conv2_2
I0813 16:40:58.922008  1670 net.cpp:157] Top shape: 8 128 150 150 (23040000)
I0813 16:40:58.922009  1670 net.cpp:165] Memory required for data: 1128960128
I0813 16:40:58.922014  1670 layer_factory.hpp:77] Creating layer relu2_2
I0813 16:40:58.922019  1670 net.cpp:100] Creating Layer relu2_2
I0813 16:40:58.922021  1670 net.cpp:434] relu2_2 <- conv2_2
I0813 16:40:58.922024  1670 net.cpp:395] relu2_2 -> conv2_2 (in-place)
I0813 16:40:58.922282  1670 net.cpp:150] Setting up relu2_2
I0813 16:40:58.922289  1670 net.cpp:157] Top shape: 8 128 150 150 (23040000)
I0813 16:40:58.922291  1670 net.cpp:165] Memory required for data: 1221120128
I0813 16:40:58.922293  1670 layer_factory.hpp:77] Creating layer pool2
I0813 16:40:58.922297  1670 net.cpp:100] Creating Layer pool2
I0813 16:40:58.922300  1670 net.cpp:434] pool2 <- conv2_2
I0813 16:40:58.922304  1670 net.cpp:408] pool2 -> pool2
I0813 16:40:58.922330  1670 net.cpp:150] Setting up pool2
I0813 16:40:58.922334  1670 net.cpp:157] Top shape: 8 128 75 75 (5760000)
I0813 16:40:58.922338  1670 net.cpp:165] Memory required for data: 1244160128
I0813 16:40:58.922339  1670 layer_factory.hpp:77] Creating layer conv3_1
I0813 16:40:58.922345  1670 net.cpp:100] Creating Layer conv3_1
I0813 16:40:58.922348  1670 net.cpp:434] conv3_1 <- pool2
I0813 16:40:58.922353  1670 net.cpp:408] conv3_1 -> conv3_1
I0813 16:40:58.925284  1670 net.cpp:150] Setting up conv3_1
I0813 16:40:58.925297  1670 net.cpp:157] Top shape: 8 256 75 75 (11520000)
I0813 16:40:58.925300  1670 net.cpp:165] Memory required for data: 1290240128
I0813 16:40:58.925308  1670 layer_factory.hpp:77] Creating layer relu3_1
I0813 16:40:58.925315  1670 net.cpp:100] Creating Layer relu3_1
I0813 16:40:58.925318  1670 net.cpp:434] relu3_1 <- conv3_1
I0813 16:40:58.925323  1670 net.cpp:395] relu3_1 -> conv3_1 (in-place)
I0813 16:40:58.925699  1670 net.cpp:150] Setting up relu3_1
I0813 16:40:58.925706  1670 net.cpp:157] Top shape: 8 256 75 75 (11520000)
I0813 16:40:58.925709  1670 net.cpp:165] Memory required for data: 1336320128
I0813 16:40:58.925711  1670 layer_factory.hpp:77] Creating layer conv3_2
I0813 16:40:58.925719  1670 net.cpp:100] Creating Layer conv3_2
I0813 16:40:58.925721  1670 net.cpp:434] conv3_2 <- conv3_1
I0813 16:40:58.925725  1670 net.cpp:408] conv3_2 -> conv3_2
I0813 16:40:58.929255  1670 net.cpp:150] Setting up conv3_2
I0813 16:40:58.929263  1670 net.cpp:157] Top shape: 8 256 75 75 (11520000)
I0813 16:40:58.929267  1670 net.cpp:165] Memory required for data: 1382400128
I0813 16:40:58.929272  1670 layer_factory.hpp:77] Creating layer relu3_2
I0813 16:40:58.929277  1670 net.cpp:100] Creating Layer relu3_2
I0813 16:40:58.929280  1670 net.cpp:434] relu3_2 <- conv3_2
I0813 16:40:58.929283  1670 net.cpp:395] relu3_2 -> conv3_2 (in-place)
I0813 16:40:58.929555  1670 net.cpp:150] Setting up relu3_2
I0813 16:40:58.929563  1670 net.cpp:157] Top shape: 8 256 75 75 (11520000)
I0813 16:40:58.929579  1670 net.cpp:165] Memory required for data: 1428480128
I0813 16:40:58.929581  1670 layer_factory.hpp:77] Creating layer conv3_3
I0813 16:40:58.929596  1670 net.cpp:100] Creating Layer conv3_3
I0813 16:40:58.929600  1670 net.cpp:434] conv3_3 <- conv3_2
I0813 16:40:58.929603  1670 net.cpp:408] conv3_3 -> conv3_3
I0813 16:40:58.933277  1670 net.cpp:150] Setting up conv3_3
I0813 16:40:58.933288  1670 net.cpp:157] Top shape: 8 256 75 75 (11520000)
I0813 16:40:58.933290  1670 net.cpp:165] Memory required for data: 1474560128
I0813 16:40:58.933296  1670 layer_factory.hpp:77] Creating layer relu3_3
I0813 16:40:58.933302  1670 net.cpp:100] Creating Layer relu3_3
I0813 16:40:58.933305  1670 net.cpp:434] relu3_3 <- conv3_3
I0813 16:40:58.933308  1670 net.cpp:395] relu3_3 -> conv3_3 (in-place)
I0813 16:40:58.933581  1670 net.cpp:150] Setting up relu3_3
I0813 16:40:58.933588  1670 net.cpp:157] Top shape: 8 256 75 75 (11520000)
I0813 16:40:58.933604  1670 net.cpp:165] Memory required for data: 1520640128
I0813 16:40:58.933606  1670 layer_factory.hpp:77] Creating layer pool3
I0813 16:40:58.933611  1670 net.cpp:100] Creating Layer pool3
I0813 16:40:58.933614  1670 net.cpp:434] pool3 <- conv3_3
I0813 16:40:58.933617  1670 net.cpp:408] pool3 -> pool3
I0813 16:40:58.933646  1670 net.cpp:150] Setting up pool3
I0813 16:40:58.933651  1670 net.cpp:157] Top shape: 8 256 38 38 (2957312)
I0813 16:40:58.933653  1670 net.cpp:165] Memory required for data: 1532469376
I0813 16:40:58.933655  1670 layer_factory.hpp:77] Creating layer conv4_1
I0813 16:40:58.933661  1670 net.cpp:100] Creating Layer conv4_1
I0813 16:40:58.933663  1670 net.cpp:434] conv4_1 <- pool3
I0813 16:40:58.933667  1670 net.cpp:408] conv4_1 -> conv4_1
I0813 16:40:58.939519  1670 net.cpp:150] Setting up conv4_1
I0813 16:40:58.939535  1670 net.cpp:157] Top shape: 8 512 38 38 (5914624)
I0813 16:40:58.939538  1670 net.cpp:165] Memory required for data: 1556127872
I0813 16:40:58.939545  1670 layer_factory.hpp:77] Creating layer relu4_1
I0813 16:40:58.939550  1670 net.cpp:100] Creating Layer relu4_1
I0813 16:40:58.939553  1670 net.cpp:434] relu4_1 <- conv4_1
I0813 16:40:58.939556  1670 net.cpp:395] relu4_1 -> conv4_1 (in-place)
I0813 16:40:58.939939  1670 net.cpp:150] Setting up relu4_1
I0813 16:40:58.939949  1670 net.cpp:157] Top shape: 8 512 38 38 (5914624)
I0813 16:40:58.939950  1670 net.cpp:165] Memory required for data: 1579786368
I0813 16:40:58.939952  1670 layer_factory.hpp:77] Creating layer conv4_2
I0813 16:40:58.939960  1670 net.cpp:100] Creating Layer conv4_2
I0813 16:40:58.939963  1670 net.cpp:434] conv4_2 <- conv4_1
I0813 16:40:58.939968  1670 net.cpp:408] conv4_2 -> conv4_2
I0813 16:40:58.950296  1670 net.cpp:150] Setting up conv4_2
I0813 16:40:58.950328  1670 net.cpp:157] Top shape: 8 512 38 38 (5914624)
I0813 16:40:58.950330  1670 net.cpp:165] Memory required for data: 1603444864
I0813 16:40:58.950340  1670 layer_factory.hpp:77] Creating layer relu4_2
I0813 16:40:58.950346  1670 net.cpp:100] Creating Layer relu4_2
I0813 16:40:58.950350  1670 net.cpp:434] relu4_2 <- conv4_2
I0813 16:40:58.950354  1670 net.cpp:395] relu4_2 -> conv4_2 (in-place)
I0813 16:40:58.950634  1670 net.cpp:150] Setting up relu4_2
I0813 16:40:58.950639  1670 net.cpp:157] Top shape: 8 512 38 38 (5914624)
I0813 16:40:58.950657  1670 net.cpp:165] Memory required for data: 1627103360
I0813 16:40:58.950659  1670 layer_factory.hpp:77] Creating layer conv4_3
I0813 16:40:58.950666  1670 net.cpp:100] Creating Layer conv4_3
I0813 16:40:58.950670  1670 net.cpp:434] conv4_3 <- conv4_2
I0813 16:40:58.950673  1670 net.cpp:408] conv4_3 -> conv4_3
I0813 16:40:58.960985  1670 net.cpp:150] Setting up conv4_3
I0813 16:40:58.961016  1670 net.cpp:157] Top shape: 8 512 38 38 (5914624)
I0813 16:40:58.961019  1670 net.cpp:165] Memory required for data: 1650761856
I0813 16:40:58.961027  1670 layer_factory.hpp:77] Creating layer relu4_3
I0813 16:40:58.961033  1670 net.cpp:100] Creating Layer relu4_3
I0813 16:40:58.961037  1670 net.cpp:434] relu4_3 <- conv4_3
I0813 16:40:58.961041  1670 net.cpp:395] relu4_3 -> conv4_3 (in-place)
I0813 16:40:58.961441  1670 net.cpp:150] Setting up relu4_3
I0813 16:40:58.961448  1670 net.cpp:157] Top shape: 8 512 38 38 (5914624)
I0813 16:40:58.961458  1670 net.cpp:165] Memory required for data: 1674420352
I0813 16:40:58.961462  1670 layer_factory.hpp:77] Creating layer conv4_3_relu4_3_0_split
I0813 16:40:58.961467  1670 net.cpp:100] Creating Layer conv4_3_relu4_3_0_split
I0813 16:40:58.961468  1670 net.cpp:434] conv4_3_relu4_3_0_split <- conv4_3
I0813 16:40:58.961472  1670 net.cpp:408] conv4_3_relu4_3_0_split -> conv4_3_relu4_3_0_split_0
I0813 16:40:58.961477  1670 net.cpp:408] conv4_3_relu4_3_0_split -> conv4_3_relu4_3_0_split_1
I0813 16:40:58.961506  1670 net.cpp:150] Setting up conv4_3_relu4_3_0_split
I0813 16:40:58.961510  1670 net.cpp:157] Top shape: 8 512 38 38 (5914624)
I0813 16:40:58.961513  1670 net.cpp:157] Top shape: 8 512 38 38 (5914624)
I0813 16:40:58.961514  1670 net.cpp:165] Memory required for data: 1721737344
I0813 16:40:58.961518  1670 layer_factory.hpp:77] Creating layer pool4
I0813 16:40:58.961522  1670 net.cpp:100] Creating Layer pool4
I0813 16:40:58.961525  1670 net.cpp:434] pool4 <- conv4_3_relu4_3_0_split_0
I0813 16:40:58.961529  1670 net.cpp:408] pool4 -> pool4
I0813 16:40:58.961553  1670 net.cpp:150] Setting up pool4
I0813 16:40:58.961558  1670 net.cpp:157] Top shape: 8 512 19 19 (1478656)
I0813 16:40:58.961560  1670 net.cpp:165] Memory required for data: 1727651968
I0813 16:40:58.961561  1670 layer_factory.hpp:77] Creating layer conv5_1
I0813 16:40:58.961568  1670 net.cpp:100] Creating Layer conv5_1
I0813 16:40:58.961570  1670 net.cpp:434] conv5_1 <- pool4
I0813 16:40:58.961575  1670 net.cpp:408] conv5_1 -> conv5_1
I0813 16:40:58.972060  1670 net.cpp:150] Setting up conv5_1
I0813 16:40:58.972079  1670 net.cpp:157] Top shape: 8 512 19 19 (1478656)
I0813 16:40:58.972080  1670 net.cpp:165] Memory required for data: 1733566592
I0813 16:40:58.972088  1670 layer_factory.hpp:77] Creating layer relu5_1
I0813 16:40:58.972095  1670 net.cpp:100] Creating Layer relu5_1
I0813 16:40:58.972098  1670 net.cpp:434] relu5_1 <- conv5_1
I0813 16:40:58.972102  1670 net.cpp:395] relu5_1 -> conv5_1 (in-place)
I0813 16:40:58.972373  1670 net.cpp:150] Setting up relu5_1
I0813 16:40:58.972380  1670 net.cpp:157] Top shape: 8 512 19 19 (1478656)
I0813 16:40:58.972383  1670 net.cpp:165] Memory required for data: 1739481216
I0813 16:40:58.972384  1670 layer_factory.hpp:77] Creating layer conv5_2
I0813 16:40:58.972391  1670 net.cpp:100] Creating Layer conv5_2
I0813 16:40:58.972393  1670 net.cpp:434] conv5_2 <- conv5_1
I0813 16:40:58.972398  1670 net.cpp:408] conv5_2 -> conv5_2
I0813 16:40:58.982885  1670 net.cpp:150] Setting up conv5_2
I0813 16:40:58.982903  1670 net.cpp:157] Top shape: 8 512 19 19 (1478656)
I0813 16:40:58.982906  1670 net.cpp:165] Memory required for data: 1745395840
I0813 16:40:58.982914  1670 layer_factory.hpp:77] Creating layer relu5_2
I0813 16:40:58.982920  1670 net.cpp:100] Creating Layer relu5_2
I0813 16:40:58.982923  1670 net.cpp:434] relu5_2 <- conv5_2
I0813 16:40:58.982926  1670 net.cpp:395] relu5_2 -> conv5_2 (in-place)
I0813 16:40:58.983196  1670 net.cpp:150] Setting up relu5_2
I0813 16:40:58.983202  1670 net.cpp:157] Top shape: 8 512 19 19 (1478656)
I0813 16:40:58.983204  1670 net.cpp:165] Memory required for data: 1751310464
I0813 16:40:58.983206  1670 layer_factory.hpp:77] Creating layer conv5_3
I0813 16:40:58.983214  1670 net.cpp:100] Creating Layer conv5_3
I0813 16:40:58.983217  1670 net.cpp:434] conv5_3 <- conv5_2
I0813 16:40:58.983222  1670 net.cpp:408] conv5_3 -> conv5_3
I0813 16:40:58.993556  1670 net.cpp:150] Setting up conv5_3
I0813 16:40:58.993574  1670 net.cpp:157] Top shape: 8 512 19 19 (1478656)
I0813 16:40:58.993577  1670 net.cpp:165] Memory required for data: 1757225088
I0813 16:40:58.993584  1670 layer_factory.hpp:77] Creating layer relu5_3
I0813 16:40:58.993594  1670 net.cpp:100] Creating Layer relu5_3
I0813 16:40:58.993597  1670 net.cpp:434] relu5_3 <- conv5_3
I0813 16:40:58.993602  1670 net.cpp:395] relu5_3 -> conv5_3 (in-place)
I0813 16:40:58.993999  1670 net.cpp:150] Setting up relu5_3
I0813 16:40:58.994021  1670 net.cpp:157] Top shape: 8 512 19 19 (1478656)
I0813 16:40:58.994024  1670 net.cpp:165] Memory required for data: 1763139712
I0813 16:40:58.994035  1670 layer_factory.hpp:77] Creating layer pool5
I0813 16:40:58.994040  1670 net.cpp:100] Creating Layer pool5
I0813 16:40:58.994042  1670 net.cpp:434] pool5 <- conv5_3
I0813 16:40:58.994046  1670 net.cpp:408] pool5 -> pool5
I0813 16:40:58.994077  1670 net.cpp:150] Setting up pool5
I0813 16:40:58.994082  1670 net.cpp:157] Top shape: 8 512 19 19 (1478656)
I0813 16:40:58.994084  1670 net.cpp:165] Memory required for data: 1769054336
I0813 16:40:58.994086  1670 layer_factory.hpp:77] Creating layer fc6
I0813 16:40:58.994092  1670 net.cpp:100] Creating Layer fc6
I0813 16:40:58.994094  1670 net.cpp:434] fc6 <- pool5
I0813 16:40:58.994098  1670 net.cpp:408] fc6 -> fc6
I0813 16:40:59.012306  1670 net.cpp:150] Setting up fc6
I0813 16:40:59.012323  1670 net.cpp:157] Top shape: 8 1024 19 19 (2957312)
I0813 16:40:59.012326  1670 net.cpp:165] Memory required for data: 1780883584
I0813 16:40:59.012333  1670 layer_factory.hpp:77] Creating layer relu6
I0813 16:40:59.012339  1670 net.cpp:100] Creating Layer relu6
I0813 16:40:59.012342  1670 net.cpp:434] relu6 <- fc6
I0813 16:40:59.012347  1670 net.cpp:395] relu6 -> fc6 (in-place)
I0813 16:40:59.012676  1670 net.cpp:150] Setting up relu6
I0813 16:40:59.012682  1670 net.cpp:157] Top shape: 8 1024 19 19 (2957312)
I0813 16:40:59.012698  1670 net.cpp:165] Memory required for data: 1792712832
I0813 16:40:59.012701  1670 layer_factory.hpp:77] Creating layer fc6_relu6_0_split
I0813 16:40:59.012706  1670 net.cpp:100] Creating Layer fc6_relu6_0_split
I0813 16:40:59.012707  1670 net.cpp:434] fc6_relu6_0_split <- fc6
I0813 16:40:59.012712  1670 net.cpp:408] fc6_relu6_0_split -> fc6_relu6_0_split_0
I0813 16:40:59.012717  1670 net.cpp:408] fc6_relu6_0_split -> fc6_relu6_0_split_1
I0813 16:40:59.012722  1670 net.cpp:408] fc6_relu6_0_split -> fc6_relu6_0_split_2
I0813 16:40:59.012728  1670 net.cpp:408] fc6_relu6_0_split -> fc6_relu6_0_split_3
I0813 16:40:59.012775  1670 net.cpp:150] Setting up fc6_relu6_0_split
I0813 16:40:59.012779  1670 net.cpp:157] Top shape: 8 1024 19 19 (2957312)
I0813 16:40:59.012784  1670 net.cpp:157] Top shape: 8 1024 19 19 (2957312)
I0813 16:40:59.012786  1670 net.cpp:157] Top shape: 8 1024 19 19 (2957312)
I0813 16:40:59.012789  1670 net.cpp:157] Top shape: 8 1024 19 19 (2957312)
I0813 16:40:59.012791  1670 net.cpp:165] Memory required for data: 1840029824
I0813 16:40:59.012794  1670 layer_factory.hpp:77] Creating layer fc7
I0813 16:40:59.012801  1670 net.cpp:100] Creating Layer fc7
I0813 16:40:59.012804  1670 net.cpp:434] fc7 <- fc6_relu6_0_split_0
I0813 16:40:59.012809  1670 net.cpp:408] fc7 -> fc7
I0813 16:40:59.018115  1670 net.cpp:150] Setting up fc7
I0813 16:40:59.018127  1670 net.cpp:157] Top shape: 8 1024 19 19 (2957312)
I0813 16:40:59.018131  1670 net.cpp:165] Memory required for data: 1851859072
I0813 16:40:59.018137  1670 layer_factory.hpp:77] Creating layer relu7
I0813 16:40:59.018143  1670 net.cpp:100] Creating Layer relu7
I0813 16:40:59.018147  1670 net.cpp:434] relu7 <- fc7
I0813 16:40:59.018151  1670 net.cpp:395] relu7 -> fc7 (in-place)
I0813 16:40:59.018419  1670 net.cpp:150] Setting up relu7
I0813 16:40:59.018426  1670 net.cpp:157] Top shape: 8 1024 19 19 (2957312)
I0813 16:40:59.018429  1670 net.cpp:165] Memory required for data: 1863688320
I0813 16:40:59.018443  1670 layer_factory.hpp:77] Creating layer conv6_1
I0813 16:40:59.018450  1670 net.cpp:100] Creating Layer conv6_1
I0813 16:40:59.018453  1670 net.cpp:434] conv6_1 <- fc7
I0813 16:40:59.018457  1670 net.cpp:408] conv6_1 -> conv6_1
I0813 16:40:59.021075  1670 net.cpp:150] Setting up conv6_1
I0813 16:40:59.021097  1670 net.cpp:157] Top shape: 8 256 19 19 (739328)
I0813 16:40:59.021100  1670 net.cpp:165] Memory required for data: 1866645632
I0813 16:40:59.021106  1670 layer_factory.hpp:77] Creating layer conv6_1_relu
I0813 16:40:59.021111  1670 net.cpp:100] Creating Layer conv6_1_relu
I0813 16:40:59.021113  1670 net.cpp:434] conv6_1_relu <- conv6_1
I0813 16:40:59.021116  1670 net.cpp:395] conv6_1_relu -> conv6_1 (in-place)
I0813 16:40:59.021392  1670 net.cpp:150] Setting up conv6_1_relu
I0813 16:40:59.021399  1670 net.cpp:157] Top shape: 8 256 19 19 (739328)
I0813 16:40:59.021402  1670 net.cpp:165] Memory required for data: 1869602944
I0813 16:40:59.021404  1670 layer_factory.hpp:77] Creating layer conv6_2
I0813 16:40:59.021411  1670 net.cpp:100] Creating Layer conv6_2
I0813 16:40:59.021414  1670 net.cpp:434] conv6_2 <- conv6_1
I0813 16:40:59.021419  1670 net.cpp:408] conv6_2 -> conv6_2
I0813 16:40:59.027490  1670 net.cpp:150] Setting up conv6_2
I0813 16:40:59.027506  1670 net.cpp:157] Top shape: 8 512 10 10 (409600)
I0813 16:40:59.027508  1670 net.cpp:165] Memory required for data: 1871241344
I0813 16:40:59.027520  1670 layer_factory.hpp:77] Creating layer conv6_2_relu
I0813 16:40:59.027528  1670 net.cpp:100] Creating Layer conv6_2_relu
I0813 16:40:59.027532  1670 net.cpp:434] conv6_2_relu <- conv6_2
I0813 16:40:59.027536  1670 net.cpp:395] conv6_2_relu -> conv6_2 (in-place)
I0813 16:40:59.027930  1670 net.cpp:150] Setting up conv6_2_relu
I0813 16:40:59.027937  1670 net.cpp:157] Top shape: 8 512 10 10 (409600)
I0813 16:40:59.027940  1670 net.cpp:165] Memory required for data: 1872879744
I0813 16:40:59.027941  1670 layer_factory.hpp:77] Creating layer conv6_2_conv6_2_relu_0_split
I0813 16:40:59.027947  1670 net.cpp:100] Creating Layer conv6_2_conv6_2_relu_0_split
I0813 16:40:59.027950  1670 net.cpp:434] conv6_2_conv6_2_relu_0_split <- conv6_2
I0813 16:40:59.027953  1670 net.cpp:408] conv6_2_conv6_2_relu_0_split -> conv6_2_conv6_2_relu_0_split_0
I0813 16:40:59.027958  1670 net.cpp:408] conv6_2_conv6_2_relu_0_split -> conv6_2_conv6_2_relu_0_split_1
I0813 16:40:59.027962  1670 net.cpp:408] conv6_2_conv6_2_relu_0_split -> conv6_2_conv6_2_relu_0_split_2
I0813 16:40:59.027966  1670 net.cpp:408] conv6_2_conv6_2_relu_0_split -> conv6_2_conv6_2_relu_0_split_3
I0813 16:40:59.028014  1670 net.cpp:150] Setting up conv6_2_conv6_2_relu_0_split
I0813 16:40:59.028019  1670 net.cpp:157] Top shape: 8 512 10 10 (409600)
I0813 16:40:59.028035  1670 net.cpp:157] Top shape: 8 512 10 10 (409600)
I0813 16:40:59.028038  1670 net.cpp:157] Top shape: 8 512 10 10 (409600)
I0813 16:40:59.028039  1670 net.cpp:157] Top shape: 8 512 10 10 (409600)
I0813 16:40:59.028041  1670 net.cpp:165] Memory required for data: 1879433344
I0813 16:40:59.028059  1670 layer_factory.hpp:77] Creating layer conv7_1
I0813 16:40:59.028065  1670 net.cpp:100] Creating Layer conv7_1
I0813 16:40:59.028067  1670 net.cpp:434] conv7_1 <- conv6_2_conv6_2_relu_0_split_0
I0813 16:40:59.028072  1670 net.cpp:408] conv7_1 -> conv7_1
I0813 16:40:59.029449  1670 net.cpp:150] Setting up conv7_1
I0813 16:40:59.029458  1670 net.cpp:157] Top shape: 8 128 10 10 (102400)
I0813 16:40:59.029459  1670 net.cpp:165] Memory required for data: 1879842944
I0813 16:40:59.029464  1670 layer_factory.hpp:77] Creating layer conv7_1_relu
I0813 16:40:59.029467  1670 net.cpp:100] Creating Layer conv7_1_relu
I0813 16:40:59.029469  1670 net.cpp:434] conv7_1_relu <- conv7_1
I0813 16:40:59.029474  1670 net.cpp:395] conv7_1_relu -> conv7_1 (in-place)
I0813 16:40:59.029737  1670 net.cpp:150] Setting up conv7_1_relu
I0813 16:40:59.029744  1670 net.cpp:157] Top shape: 8 128 10 10 (102400)
I0813 16:40:59.029747  1670 net.cpp:165] Memory required for data: 1880252544
I0813 16:40:59.029748  1670 layer_factory.hpp:77] Creating layer conv7_2
I0813 16:40:59.029754  1670 net.cpp:100] Creating Layer conv7_2
I0813 16:40:59.029757  1670 net.cpp:434] conv7_2 <- conv7_1
I0813 16:40:59.029762  1670 net.cpp:408] conv7_2 -> conv7_2
I0813 16:40:59.032330  1670 net.cpp:150] Setting up conv7_2
I0813 16:40:59.032353  1670 net.cpp:157] Top shape: 8 256 5 5 (51200)
I0813 16:40:59.032356  1670 net.cpp:165] Memory required for data: 1880457344
I0813 16:40:59.032361  1670 layer_factory.hpp:77] Creating layer conv7_2_relu
I0813 16:40:59.032366  1670 net.cpp:100] Creating Layer conv7_2_relu
I0813 16:40:59.032368  1670 net.cpp:434] conv7_2_relu <- conv7_2
I0813 16:40:59.032374  1670 net.cpp:395] conv7_2_relu -> conv7_2 (in-place)
I0813 16:40:59.032795  1670 net.cpp:150] Setting up conv7_2_relu
I0813 16:40:59.032809  1670 net.cpp:157] Top shape: 8 256 5 5 (51200)
I0813 16:40:59.032826  1670 net.cpp:165] Memory required for data: 1880662144
I0813 16:40:59.032829  1670 layer_factory.hpp:77] Creating layer conv7_2_conv7_2_relu_0_split
I0813 16:40:59.032833  1670 net.cpp:100] Creating Layer conv7_2_conv7_2_relu_0_split
I0813 16:40:59.032835  1670 net.cpp:434] conv7_2_conv7_2_relu_0_split <- conv7_2
I0813 16:40:59.032841  1670 net.cpp:408] conv7_2_conv7_2_relu_0_split -> conv7_2_conv7_2_relu_0_split_0
I0813 16:40:59.032846  1670 net.cpp:408] conv7_2_conv7_2_relu_0_split -> conv7_2_conv7_2_relu_0_split_1
I0813 16:40:59.032851  1670 net.cpp:408] conv7_2_conv7_2_relu_0_split -> conv7_2_conv7_2_relu_0_split_2
I0813 16:40:59.032856  1670 net.cpp:408] conv7_2_conv7_2_relu_0_split -> conv7_2_conv7_2_relu_0_split_3
I0813 16:40:59.032903  1670 net.cpp:150] Setting up conv7_2_conv7_2_relu_0_split
I0813 16:40:59.032907  1670 net.cpp:157] Top shape: 8 256 5 5 (51200)
I0813 16:40:59.032910  1670 net.cpp:157] Top shape: 8 256 5 5 (51200)
I0813 16:40:59.032912  1670 net.cpp:157] Top shape: 8 256 5 5 (51200)
I0813 16:40:59.032915  1670 net.cpp:157] Top shape: 8 256 5 5 (51200)
I0813 16:40:59.032917  1670 net.cpp:165] Memory required for data: 1881481344
I0813 16:40:59.032919  1670 layer_factory.hpp:77] Creating layer conv8_1
I0813 16:40:59.032925  1670 net.cpp:100] Creating Layer conv8_1
I0813 16:40:59.032927  1670 net.cpp:434] conv8_1 <- conv7_2_conv7_2_relu_0_split_0
I0813 16:40:59.032932  1670 net.cpp:408] conv8_1 -> conv8_1
I0813 16:40:59.034279  1670 net.cpp:150] Setting up conv8_1
I0813 16:40:59.034287  1670 net.cpp:157] Top shape: 8 128 5 5 (25600)
I0813 16:40:59.034303  1670 net.cpp:165] Memory required for data: 1881583744
I0813 16:40:59.034309  1670 layer_factory.hpp:77] Creating layer conv8_1_relu
I0813 16:40:59.034312  1670 net.cpp:100] Creating Layer conv8_1_relu
I0813 16:40:59.034315  1670 net.cpp:434] conv8_1_relu <- conv8_1
I0813 16:40:59.034320  1670 net.cpp:395] conv8_1_relu -> conv8_1 (in-place)
I0813 16:40:59.034587  1670 net.cpp:150] Setting up conv8_1_relu
I0813 16:40:59.034593  1670 net.cpp:157] Top shape: 8 128 5 5 (25600)
I0813 16:40:59.034595  1670 net.cpp:165] Memory required for data: 1881686144
I0813 16:40:59.034597  1670 layer_factory.hpp:77] Creating layer conv8_2
I0813 16:40:59.034603  1670 net.cpp:100] Creating Layer conv8_2
I0813 16:40:59.034605  1670 net.cpp:434] conv8_2 <- conv8_1
I0813 16:40:59.034610  1670 net.cpp:408] conv8_2 -> conv8_2
I0813 16:40:59.037346  1670 net.cpp:150] Setting up conv8_2
I0813 16:40:59.037370  1670 net.cpp:157] Top shape: 8 256 3 3 (18432)
I0813 16:40:59.037374  1670 net.cpp:165] Memory required for data: 1881759872
I0813 16:40:59.037379  1670 layer_factory.hpp:77] Creating layer conv8_2_relu
I0813 16:40:59.037384  1670 net.cpp:100] Creating Layer conv8_2_relu
I0813 16:40:59.037386  1670 net.cpp:434] conv8_2_relu <- conv8_2
I0813 16:40:59.037389  1670 net.cpp:395] conv8_2_relu -> conv8_2 (in-place)
I0813 16:40:59.037667  1670 net.cpp:150] Setting up conv8_2_relu
I0813 16:40:59.037672  1670 net.cpp:157] Top shape: 8 256 3 3 (18432)
I0813 16:40:59.037674  1670 net.cpp:165] Memory required for data: 1881833600
I0813 16:40:59.037678  1670 layer_factory.hpp:77] Creating layer conv8_2_conv8_2_relu_0_split
I0813 16:40:59.037681  1670 net.cpp:100] Creating Layer conv8_2_conv8_2_relu_0_split
I0813 16:40:59.037683  1670 net.cpp:434] conv8_2_conv8_2_relu_0_split <- conv8_2
I0813 16:40:59.037688  1670 net.cpp:408] conv8_2_conv8_2_relu_0_split -> conv8_2_conv8_2_relu_0_split_0
I0813 16:40:59.037694  1670 net.cpp:408] conv8_2_conv8_2_relu_0_split -> conv8_2_conv8_2_relu_0_split_1
I0813 16:40:59.037698  1670 net.cpp:408] conv8_2_conv8_2_relu_0_split -> conv8_2_conv8_2_relu_0_split_2
I0813 16:40:59.037701  1670 net.cpp:408] conv8_2_conv8_2_relu_0_split -> conv8_2_conv8_2_relu_0_split_3
I0813 16:40:59.037750  1670 net.cpp:150] Setting up conv8_2_conv8_2_relu_0_split
I0813 16:40:59.037755  1670 net.cpp:157] Top shape: 8 256 3 3 (18432)
I0813 16:40:59.037758  1670 net.cpp:157] Top shape: 8 256 3 3 (18432)
I0813 16:40:59.037768  1670 net.cpp:157] Top shape: 8 256 3 3 (18432)
I0813 16:40:59.037770  1670 net.cpp:157] Top shape: 8 256 3 3 (18432)
I0813 16:40:59.037773  1670 net.cpp:165] Memory required for data: 1882128512
I0813 16:40:59.037775  1670 layer_factory.hpp:77] Creating layer conv9_1
I0813 16:40:59.037781  1670 net.cpp:100] Creating Layer conv9_1
I0813 16:40:59.037784  1670 net.cpp:434] conv9_1 <- conv8_2_conv8_2_relu_0_split_0
I0813 16:40:59.037789  1670 net.cpp:408] conv9_1 -> conv9_1
I0813 16:40:59.039007  1670 net.cpp:150] Setting up conv9_1
I0813 16:40:59.039016  1670 net.cpp:157] Top shape: 8 128 3 3 (9216)
I0813 16:40:59.039018  1670 net.cpp:165] Memory required for data: 1882165376
I0813 16:40:59.039023  1670 layer_factory.hpp:77] Creating layer conv9_1_relu
I0813 16:40:59.039027  1670 net.cpp:100] Creating Layer conv9_1_relu
I0813 16:40:59.039029  1670 net.cpp:434] conv9_1_relu <- conv9_1
I0813 16:40:59.039033  1670 net.cpp:395] conv9_1_relu -> conv9_1 (in-place)
I0813 16:40:59.039417  1670 net.cpp:150] Setting up conv9_1_relu
I0813 16:40:59.039427  1670 net.cpp:157] Top shape: 8 128 3 3 (9216)
I0813 16:40:59.039428  1670 net.cpp:165] Memory required for data: 1882202240
I0813 16:40:59.039430  1670 layer_factory.hpp:77] Creating layer conv9_2
I0813 16:40:59.039436  1670 net.cpp:100] Creating Layer conv9_2
I0813 16:40:59.039439  1670 net.cpp:434] conv9_2 <- conv9_1
I0813 16:40:59.039443  1670 net.cpp:408] conv9_2 -> conv9_2
I0813 16:40:59.042037  1670 net.cpp:150] Setting up conv9_2
I0813 16:40:59.042045  1670 net.cpp:157] Top shape: 8 256 1 1 (2048)
I0813 16:40:59.042048  1670 net.cpp:165] Memory required for data: 1882210432
I0813 16:40:59.042052  1670 layer_factory.hpp:77] Creating layer conv9_2_relu
I0813 16:40:59.042057  1670 net.cpp:100] Creating Layer conv9_2_relu
I0813 16:40:59.042058  1670 net.cpp:434] conv9_2_relu <- conv9_2
I0813 16:40:59.042063  1670 net.cpp:395] conv9_2_relu -> conv9_2 (in-place)
I0813 16:40:59.042338  1670 net.cpp:150] Setting up conv9_2_relu
I0813 16:40:59.042345  1670 net.cpp:157] Top shape: 8 256 1 1 (2048)
I0813 16:40:59.042346  1670 net.cpp:165] Memory required for data: 1882218624
I0813 16:40:59.042348  1670 layer_factory.hpp:77] Creating layer conv9_2_conv9_2_relu_0_split
I0813 16:40:59.042352  1670 net.cpp:100] Creating Layer conv9_2_conv9_2_relu_0_split
I0813 16:40:59.042354  1670 net.cpp:434] conv9_2_conv9_2_relu_0_split <- conv9_2
I0813 16:40:59.042358  1670 net.cpp:408] conv9_2_conv9_2_relu_0_split -> conv9_2_conv9_2_relu_0_split_0
I0813 16:40:59.042363  1670 net.cpp:408] conv9_2_conv9_2_relu_0_split -> conv9_2_conv9_2_relu_0_split_1
I0813 16:40:59.042367  1670 net.cpp:408] conv9_2_conv9_2_relu_0_split -> conv9_2_conv9_2_relu_0_split_2
I0813 16:40:59.042407  1670 net.cpp:150] Setting up conv9_2_conv9_2_relu_0_split
I0813 16:40:59.042412  1670 net.cpp:157] Top shape: 8 256 1 1 (2048)
I0813 16:40:59.042414  1670 net.cpp:157] Top shape: 8 256 1 1 (2048)
I0813 16:40:59.042417  1670 net.cpp:157] Top shape: 8 256 1 1 (2048)
I0813 16:40:59.042418  1670 net.cpp:165] Memory required for data: 1882243200
I0813 16:40:59.042420  1670 layer_factory.hpp:77] Creating layer conv4_3_norm
I0813 16:40:59.042425  1670 net.cpp:100] Creating Layer conv4_3_norm
I0813 16:40:59.042428  1670 net.cpp:434] conv4_3_norm <- conv4_3_relu4_3_0_split_1
I0813 16:40:59.042431  1670 net.cpp:408] conv4_3_norm -> conv4_3_norm
I0813 16:40:59.042554  1670 net.cpp:150] Setting up conv4_3_norm
I0813 16:40:59.042559  1670 net.cpp:157] Top shape: 8 512 38 38 (5914624)
I0813 16:40:59.042562  1670 net.cpp:165] Memory required for data: 1905901696
I0813 16:40:59.042564  1670 layer_factory.hpp:77] Creating layer conv4_3_norm_conv4_3_norm_0_split
I0813 16:40:59.042567  1670 net.cpp:100] Creating Layer conv4_3_norm_conv4_3_norm_0_split
I0813 16:40:59.042570  1670 net.cpp:434] conv4_3_norm_conv4_3_norm_0_split <- conv4_3_norm
I0813 16:40:59.042573  1670 net.cpp:408] conv4_3_norm_conv4_3_norm_0_split -> conv4_3_norm_conv4_3_norm_0_split_0
I0813 16:40:59.042577  1670 net.cpp:408] conv4_3_norm_conv4_3_norm_0_split -> conv4_3_norm_conv4_3_norm_0_split_1
I0813 16:40:59.042588  1670 net.cpp:408] conv4_3_norm_conv4_3_norm_0_split -> conv4_3_norm_conv4_3_norm_0_split_2
I0813 16:40:59.042623  1670 net.cpp:150] Setting up conv4_3_norm_conv4_3_norm_0_split
I0813 16:40:59.042629  1670 net.cpp:157] Top shape: 8 512 38 38 (5914624)
I0813 16:40:59.042630  1670 net.cpp:157] Top shape: 8 512 38 38 (5914624)
I0813 16:40:59.042634  1670 net.cpp:157] Top shape: 8 512 38 38 (5914624)
I0813 16:40:59.042635  1670 net.cpp:165] Memory required for data: 1976877184
I0813 16:40:59.042639  1670 layer_factory.hpp:77] Creating layer conv4_3_norm_mbox_loc
I0813 16:40:59.042644  1670 net.cpp:100] Creating Layer conv4_3_norm_mbox_loc
I0813 16:40:59.042647  1670 net.cpp:434] conv4_3_norm_mbox_loc <- conv4_3_norm_conv4_3_norm_0_split_0
I0813 16:40:59.042652  1670 net.cpp:408] conv4_3_norm_mbox_loc -> conv4_3_norm_mbox_loc
I0813 16:40:59.044128  1670 net.cpp:150] Setting up conv4_3_norm_mbox_loc
I0813 16:40:59.044137  1670 net.cpp:157] Top shape: 8 16 38 38 (184832)
I0813 16:40:59.044139  1670 net.cpp:165] Memory required for data: 1977616512
I0813 16:40:59.044144  1670 layer_factory.hpp:77] Creating layer conv4_3_norm_mbox_loc_perm
I0813 16:40:59.044150  1670 net.cpp:100] Creating Layer conv4_3_norm_mbox_loc_perm
I0813 16:40:59.044153  1670 net.cpp:434] conv4_3_norm_mbox_loc_perm <- conv4_3_norm_mbox_loc
I0813 16:40:59.044157  1670 net.cpp:408] conv4_3_norm_mbox_loc_perm -> conv4_3_norm_mbox_loc_perm
I0813 16:40:59.044239  1670 net.cpp:150] Setting up conv4_3_norm_mbox_loc_perm
I0813 16:40:59.044243  1670 net.cpp:157] Top shape: 8 38 38 16 (184832)
I0813 16:40:59.044246  1670 net.cpp:165] Memory required for data: 1978355840
I0813 16:40:59.044248  1670 layer_factory.hpp:77] Creating layer conv4_3_norm_mbox_loc_flat
I0813 16:40:59.044253  1670 net.cpp:100] Creating Layer conv4_3_norm_mbox_loc_flat
I0813 16:40:59.044255  1670 net.cpp:434] conv4_3_norm_mbox_loc_flat <- conv4_3_norm_mbox_loc_perm
I0813 16:40:59.044260  1670 net.cpp:408] conv4_3_norm_mbox_loc_flat -> conv4_3_norm_mbox_loc_flat
I0813 16:40:59.044284  1670 net.cpp:150] Setting up conv4_3_norm_mbox_loc_flat
I0813 16:40:59.044289  1670 net.cpp:157] Top shape: 8 23104 (184832)
I0813 16:40:59.044292  1670 net.cpp:165] Memory required for data: 1979095168
I0813 16:40:59.044294  1670 layer_factory.hpp:77] Creating layer conv4_3_norm_mbox_conf
I0813 16:40:59.044304  1670 net.cpp:100] Creating Layer conv4_3_norm_mbox_conf
I0813 16:40:59.044308  1670 net.cpp:434] conv4_3_norm_mbox_conf <- conv4_3_norm_conv4_3_norm_0_split_1
I0813 16:40:59.044312  1670 net.cpp:408] conv4_3_norm_mbox_conf -> conv4_3_norm_mbox_conf
I0813 16:40:59.047459  1670 net.cpp:150] Setting up conv4_3_norm_mbox_conf
I0813 16:40:59.047471  1670 net.cpp:157] Top shape: 8 92 38 38 (1062784)
I0813 16:40:59.047473  1670 net.cpp:165] Memory required for data: 1983346304
I0813 16:40:59.047478  1670 layer_factory.hpp:77] Creating layer conv4_3_norm_mbox_conf_perm
I0813 16:40:59.047485  1670 net.cpp:100] Creating Layer conv4_3_norm_mbox_conf_perm
I0813 16:40:59.047488  1670 net.cpp:434] conv4_3_norm_mbox_conf_perm <- conv4_3_norm_mbox_conf
I0813 16:40:59.047493  1670 net.cpp:408] conv4_3_norm_mbox_conf_perm -> conv4_3_norm_mbox_conf_perm
I0813 16:40:59.047571  1670 net.cpp:150] Setting up conv4_3_norm_mbox_conf_perm
I0813 16:40:59.047576  1670 net.cpp:157] Top shape: 8 38 38 92 (1062784)
I0813 16:40:59.047578  1670 net.cpp:165] Memory required for data: 1987597440
I0813 16:40:59.047581  1670 layer_factory.hpp:77] Creating layer conv4_3_norm_mbox_conf_flat
I0813 16:40:59.047585  1670 net.cpp:100] Creating Layer conv4_3_norm_mbox_conf_flat
I0813 16:40:59.047586  1670 net.cpp:434] conv4_3_norm_mbox_conf_flat <- conv4_3_norm_mbox_conf_perm
I0813 16:40:59.047590  1670 net.cpp:408] conv4_3_norm_mbox_conf_flat -> conv4_3_norm_mbox_conf_flat
I0813 16:40:59.047608  1670 net.cpp:150] Setting up conv4_3_norm_mbox_conf_flat
I0813 16:40:59.047613  1670 net.cpp:157] Top shape: 8 132848 (1062784)
I0813 16:40:59.047616  1670 net.cpp:165] Memory required for data: 1991848576
I0813 16:40:59.047626  1670 layer_factory.hpp:77] Creating layer conv4_3_norm_mbox_priorbox
I0813 16:40:59.047631  1670 net.cpp:100] Creating Layer conv4_3_norm_mbox_priorbox
I0813 16:40:59.047632  1670 net.cpp:434] conv4_3_norm_mbox_priorbox <- conv4_3_norm_conv4_3_norm_0_split_2
I0813 16:40:59.047636  1670 net.cpp:434] conv4_3_norm_mbox_priorbox <- data_data_0_split_1
I0813 16:40:59.047639  1670 net.cpp:408] conv4_3_norm_mbox_priorbox -> conv4_3_norm_mbox_priorbox
I0813 16:40:59.047662  1670 net.cpp:150] Setting up conv4_3_norm_mbox_priorbox
I0813 16:40:59.047667  1670 net.cpp:157] Top shape: 1 2 23104 (46208)
I0813 16:40:59.047667  1670 net.cpp:165] Memory required for data: 1992033408
I0813 16:40:59.047669  1670 layer_factory.hpp:77] Creating layer fc6_mbox_loc
I0813 16:40:59.047677  1670 net.cpp:100] Creating Layer fc6_mbox_loc
I0813 16:40:59.047678  1670 net.cpp:434] fc6_mbox_loc <- fc6_relu6_0_split_1
I0813 16:40:59.047683  1670 net.cpp:408] fc6_mbox_loc -> fc6_mbox_loc
I0813 16:40:59.049650  1670 net.cpp:150] Setting up fc6_mbox_loc
I0813 16:40:59.049659  1670 net.cpp:157] Top shape: 8 24 19 19 (69312)
I0813 16:40:59.049661  1670 net.cpp:165] Memory required for data: 1992310656
I0813 16:40:59.049666  1670 layer_factory.hpp:77] Creating layer fc6_mbox_loc_perm
I0813 16:40:59.049670  1670 net.cpp:100] Creating Layer fc6_mbox_loc_perm
I0813 16:40:59.049674  1670 net.cpp:434] fc6_mbox_loc_perm <- fc6_mbox_loc
I0813 16:40:59.049677  1670 net.cpp:408] fc6_mbox_loc_perm -> fc6_mbox_loc_perm
I0813 16:40:59.049755  1670 net.cpp:150] Setting up fc6_mbox_loc_perm
I0813 16:40:59.049760  1670 net.cpp:157] Top shape: 8 19 19 24 (69312)
I0813 16:40:59.049763  1670 net.cpp:165] Memory required for data: 1992587904
I0813 16:40:59.049765  1670 layer_factory.hpp:77] Creating layer fc6_mbox_loc_flat
I0813 16:40:59.049768  1670 net.cpp:100] Creating Layer fc6_mbox_loc_flat
I0813 16:40:59.049770  1670 net.cpp:434] fc6_mbox_loc_flat <- fc6_mbox_loc_perm
I0813 16:40:59.049774  1670 net.cpp:408] fc6_mbox_loc_flat -> fc6_mbox_loc_flat
I0813 16:40:59.049790  1670 net.cpp:150] Setting up fc6_mbox_loc_flat
I0813 16:40:59.049794  1670 net.cpp:157] Top shape: 8 8664 (69312)
I0813 16:40:59.049795  1670 net.cpp:165] Memory required for data: 1992865152
I0813 16:40:59.049798  1670 layer_factory.hpp:77] Creating layer fc6_mbox_conf
I0813 16:40:59.049806  1670 net.cpp:100] Creating Layer fc6_mbox_conf
I0813 16:40:59.049808  1670 net.cpp:434] fc6_mbox_conf <- fc6_relu6_0_split_2
I0813 16:40:59.049813  1670 net.cpp:408] fc6_mbox_conf -> fc6_mbox_conf
I0813 16:40:59.055963  1670 net.cpp:150] Setting up fc6_mbox_conf
I0813 16:40:59.055979  1670 net.cpp:157] Top shape: 8 138 19 19 (398544)
I0813 16:40:59.055981  1670 net.cpp:165] Memory required for data: 1994459328
I0813 16:40:59.055989  1670 layer_factory.hpp:77] Creating layer fc6_mbox_conf_perm
I0813 16:40:59.055996  1670 net.cpp:100] Creating Layer fc6_mbox_conf_perm
I0813 16:40:59.055999  1670 net.cpp:434] fc6_mbox_conf_perm <- fc6_mbox_conf
I0813 16:40:59.056005  1670 net.cpp:408] fc6_mbox_conf_perm -> fc6_mbox_conf_perm
I0813 16:40:59.056083  1670 net.cpp:150] Setting up fc6_mbox_conf_perm
I0813 16:40:59.056088  1670 net.cpp:157] Top shape: 8 19 19 138 (398544)
I0813 16:40:59.056090  1670 net.cpp:165] Memory required for data: 1996053504
I0813 16:40:59.056092  1670 layer_factory.hpp:77] Creating layer fc6_mbox_conf_flat
I0813 16:40:59.056097  1670 net.cpp:100] Creating Layer fc6_mbox_conf_flat
I0813 16:40:59.056099  1670 net.cpp:434] fc6_mbox_conf_flat <- fc6_mbox_conf_perm
I0813 16:40:59.056103  1670 net.cpp:408] fc6_mbox_conf_flat -> fc6_mbox_conf_flat
I0813 16:40:59.056121  1670 net.cpp:150] Setting up fc6_mbox_conf_flat
I0813 16:40:59.056125  1670 net.cpp:157] Top shape: 8 49818 (398544)
I0813 16:40:59.056128  1670 net.cpp:165] Memory required for data: 1997647680
I0813 16:40:59.056129  1670 layer_factory.hpp:77] Creating layer fc6_mbox_priorbox
I0813 16:40:59.056134  1670 net.cpp:100] Creating Layer fc6_mbox_priorbox
I0813 16:40:59.056136  1670 net.cpp:434] fc6_mbox_priorbox <- fc6_relu6_0_split_3
I0813 16:40:59.056147  1670 net.cpp:434] fc6_mbox_priorbox <- data_data_0_split_2
I0813 16:40:59.056152  1670 net.cpp:408] fc6_mbox_priorbox -> fc6_mbox_priorbox
I0813 16:40:59.056174  1670 net.cpp:150] Setting up fc6_mbox_priorbox
I0813 16:40:59.056177  1670 net.cpp:157] Top shape: 1 2 8664 (17328)
I0813 16:40:59.056180  1670 net.cpp:165] Memory required for data: 1997716992
I0813 16:40:59.056182  1670 layer_factory.hpp:77] Creating layer conv6_2_mbox_loc
I0813 16:40:59.056188  1670 net.cpp:100] Creating Layer conv6_2_mbox_loc
I0813 16:40:59.056191  1670 net.cpp:434] conv6_2_mbox_loc <- conv6_2_conv6_2_relu_0_split_1
I0813 16:40:59.056196  1670 net.cpp:408] conv6_2_mbox_loc -> conv6_2_mbox_loc
I0813 16:40:59.057824  1670 net.cpp:150] Setting up conv6_2_mbox_loc
I0813 16:40:59.057833  1670 net.cpp:157] Top shape: 8 24 10 10 (19200)
I0813 16:40:59.057837  1670 net.cpp:165] Memory required for data: 1997793792
I0813 16:40:59.057842  1670 layer_factory.hpp:77] Creating layer conv6_2_mbox_loc_perm
I0813 16:40:59.057847  1670 net.cpp:100] Creating Layer conv6_2_mbox_loc_perm
I0813 16:40:59.057850  1670 net.cpp:434] conv6_2_mbox_loc_perm <- conv6_2_mbox_loc
I0813 16:40:59.057855  1670 net.cpp:408] conv6_2_mbox_loc_perm -> conv6_2_mbox_loc_perm
I0813 16:40:59.057935  1670 net.cpp:150] Setting up conv6_2_mbox_loc_perm
I0813 16:40:59.057940  1670 net.cpp:157] Top shape: 8 10 10 24 (19200)
I0813 16:40:59.057943  1670 net.cpp:165] Memory required for data: 1997870592
I0813 16:40:59.057945  1670 layer_factory.hpp:77] Creating layer conv6_2_mbox_loc_flat
I0813 16:40:59.057950  1670 net.cpp:100] Creating Layer conv6_2_mbox_loc_flat
I0813 16:40:59.057952  1670 net.cpp:434] conv6_2_mbox_loc_flat <- conv6_2_mbox_loc_perm
I0813 16:40:59.057955  1670 net.cpp:408] conv6_2_mbox_loc_flat -> conv6_2_mbox_loc_flat
I0813 16:40:59.057972  1670 net.cpp:150] Setting up conv6_2_mbox_loc_flat
I0813 16:40:59.057977  1670 net.cpp:157] Top shape: 8 2400 (19200)
I0813 16:40:59.057979  1670 net.cpp:165] Memory required for data: 1997947392
I0813 16:40:59.057981  1670 layer_factory.hpp:77] Creating layer conv6_2_mbox_conf
I0813 16:40:59.057987  1670 net.cpp:100] Creating Layer conv6_2_mbox_conf
I0813 16:40:59.057991  1670 net.cpp:434] conv6_2_mbox_conf <- conv6_2_conv6_2_relu_0_split_2
I0813 16:40:59.057994  1670 net.cpp:408] conv6_2_mbox_conf -> conv6_2_mbox_conf
I0813 16:40:59.061909  1670 net.cpp:150] Setting up conv6_2_mbox_conf
I0813 16:40:59.061921  1670 net.cpp:157] Top shape: 8 138 10 10 (110400)
I0813 16:40:59.061924  1670 net.cpp:165] Memory required for data: 1998388992
I0813 16:40:59.061930  1670 layer_factory.hpp:77] Creating layer conv6_2_mbox_conf_perm
I0813 16:40:59.061936  1670 net.cpp:100] Creating Layer conv6_2_mbox_conf_perm
I0813 16:40:59.061939  1670 net.cpp:434] conv6_2_mbox_conf_perm <- conv6_2_mbox_conf
I0813 16:40:59.061945  1670 net.cpp:408] conv6_2_mbox_conf_perm -> conv6_2_mbox_conf_perm
I0813 16:40:59.062028  1670 net.cpp:150] Setting up conv6_2_mbox_conf_perm
I0813 16:40:59.062033  1670 net.cpp:157] Top shape: 8 10 10 138 (110400)
I0813 16:40:59.062036  1670 net.cpp:165] Memory required for data: 1998830592
I0813 16:40:59.062038  1670 layer_factory.hpp:77] Creating layer conv6_2_mbox_conf_flat
I0813 16:40:59.062043  1670 net.cpp:100] Creating Layer conv6_2_mbox_conf_flat
I0813 16:40:59.062047  1670 net.cpp:434] conv6_2_mbox_conf_flat <- conv6_2_mbox_conf_perm
I0813 16:40:59.062049  1670 net.cpp:408] conv6_2_mbox_conf_flat -> conv6_2_mbox_conf_flat
I0813 16:40:59.062068  1670 net.cpp:150] Setting up conv6_2_mbox_conf_flat
I0813 16:40:59.062072  1670 net.cpp:157] Top shape: 8 13800 (110400)
I0813 16:40:59.062074  1670 net.cpp:165] Memory required for data: 1999272192
I0813 16:40:59.062077  1670 layer_factory.hpp:77] Creating layer conv6_2_mbox_priorbox
I0813 16:40:59.062083  1670 net.cpp:100] Creating Layer conv6_2_mbox_priorbox
I0813 16:40:59.062085  1670 net.cpp:434] conv6_2_mbox_priorbox <- conv6_2_conv6_2_relu_0_split_3
I0813 16:40:59.062088  1670 net.cpp:434] conv6_2_mbox_priorbox <- data_data_0_split_3
I0813 16:40:59.062099  1670 net.cpp:408] conv6_2_mbox_priorbox -> conv6_2_mbox_priorbox
I0813 16:40:59.062121  1670 net.cpp:150] Setting up conv6_2_mbox_priorbox
I0813 16:40:59.062125  1670 net.cpp:157] Top shape: 1 2 2400 (4800)
I0813 16:40:59.062129  1670 net.cpp:165] Memory required for data: 1999291392
I0813 16:40:59.062130  1670 layer_factory.hpp:77] Creating layer conv7_2_mbox_loc
I0813 16:40:59.062137  1670 net.cpp:100] Creating Layer conv7_2_mbox_loc
I0813 16:40:59.062140  1670 net.cpp:434] conv7_2_mbox_loc <- conv7_2_conv7_2_relu_0_split_1
I0813 16:40:59.062145  1670 net.cpp:408] conv7_2_mbox_loc -> conv7_2_mbox_loc
I0813 16:40:59.063613  1670 net.cpp:150] Setting up conv7_2_mbox_loc
I0813 16:40:59.063622  1670 net.cpp:157] Top shape: 8 24 5 5 (4800)
I0813 16:40:59.063624  1670 net.cpp:165] Memory required for data: 1999310592
I0813 16:40:59.063629  1670 layer_factory.hpp:77] Creating layer conv7_2_mbox_loc_perm
I0813 16:40:59.063637  1670 net.cpp:100] Creating Layer conv7_2_mbox_loc_perm
I0813 16:40:59.063639  1670 net.cpp:434] conv7_2_mbox_loc_perm <- conv7_2_mbox_loc
I0813 16:40:59.063643  1670 net.cpp:408] conv7_2_mbox_loc_perm -> conv7_2_mbox_loc_perm
I0813 16:40:59.063724  1670 net.cpp:150] Setting up conv7_2_mbox_loc_perm
I0813 16:40:59.063729  1670 net.cpp:157] Top shape: 8 5 5 24 (4800)
I0813 16:40:59.063730  1670 net.cpp:165] Memory required for data: 1999329792
I0813 16:40:59.063732  1670 layer_factory.hpp:77] Creating layer conv7_2_mbox_loc_flat
I0813 16:40:59.063736  1670 net.cpp:100] Creating Layer conv7_2_mbox_loc_flat
I0813 16:40:59.063738  1670 net.cpp:434] conv7_2_mbox_loc_flat <- conv7_2_mbox_loc_perm
I0813 16:40:59.063742  1670 net.cpp:408] conv7_2_mbox_loc_flat -> conv7_2_mbox_loc_flat
I0813 16:40:59.063761  1670 net.cpp:150] Setting up conv7_2_mbox_loc_flat
I0813 16:40:59.063766  1670 net.cpp:157] Top shape: 8 600 (4800)
I0813 16:40:59.063767  1670 net.cpp:165] Memory required for data: 1999348992
I0813 16:40:59.063769  1670 layer_factory.hpp:77] Creating layer conv7_2_mbox_conf
I0813 16:40:59.063776  1670 net.cpp:100] Creating Layer conv7_2_mbox_conf
I0813 16:40:59.063778  1670 net.cpp:434] conv7_2_mbox_conf <- conv7_2_conv7_2_relu_0_split_2
I0813 16:40:59.063782  1670 net.cpp:408] conv7_2_mbox_conf -> conv7_2_mbox_conf
I0813 16:40:59.066493  1670 net.cpp:150] Setting up conv7_2_mbox_conf
I0813 16:40:59.066503  1670 net.cpp:157] Top shape: 8 138 5 5 (27600)
I0813 16:40:59.066505  1670 net.cpp:165] Memory required for data: 1999459392
I0813 16:40:59.066510  1670 layer_factory.hpp:77] Creating layer conv7_2_mbox_conf_perm
I0813 16:40:59.066515  1670 net.cpp:100] Creating Layer conv7_2_mbox_conf_perm
I0813 16:40:59.066519  1670 net.cpp:434] conv7_2_mbox_conf_perm <- conv7_2_mbox_conf
I0813 16:40:59.066522  1670 net.cpp:408] conv7_2_mbox_conf_perm -> conv7_2_mbox_conf_perm
I0813 16:40:59.066602  1670 net.cpp:150] Setting up conv7_2_mbox_conf_perm
I0813 16:40:59.066609  1670 net.cpp:157] Top shape: 8 5 5 138 (27600)
I0813 16:40:59.066612  1670 net.cpp:165] Memory required for data: 1999569792
I0813 16:40:59.066613  1670 layer_factory.hpp:77] Creating layer conv7_2_mbox_conf_flat
I0813 16:40:59.066617  1670 net.cpp:100] Creating Layer conv7_2_mbox_conf_flat
I0813 16:40:59.066619  1670 net.cpp:434] conv7_2_mbox_conf_flat <- conv7_2_mbox_conf_perm
I0813 16:40:59.066622  1670 net.cpp:408] conv7_2_mbox_conf_flat -> conv7_2_mbox_conf_flat
I0813 16:40:59.066639  1670 net.cpp:150] Setting up conv7_2_mbox_conf_flat
I0813 16:40:59.066643  1670 net.cpp:157] Top shape: 8 3450 (27600)
I0813 16:40:59.066645  1670 net.cpp:165] Memory required for data: 1999680192
I0813 16:40:59.066648  1670 layer_factory.hpp:77] Creating layer conv7_2_mbox_priorbox
I0813 16:40:59.066653  1670 net.cpp:100] Creating Layer conv7_2_mbox_priorbox
I0813 16:40:59.066656  1670 net.cpp:434] conv7_2_mbox_priorbox <- conv7_2_conv7_2_relu_0_split_3
I0813 16:40:59.066659  1670 net.cpp:434] conv7_2_mbox_priorbox <- data_data_0_split_4
I0813 16:40:59.066663  1670 net.cpp:408] conv7_2_mbox_priorbox -> conv7_2_mbox_priorbox
I0813 16:40:59.066690  1670 net.cpp:150] Setting up conv7_2_mbox_priorbox
I0813 16:40:59.066694  1670 net.cpp:157] Top shape: 1 2 600 (1200)
I0813 16:40:59.066697  1670 net.cpp:165] Memory required for data: 1999684992
I0813 16:40:59.066699  1670 layer_factory.hpp:77] Creating layer conv8_2_mbox_loc
I0813 16:40:59.066705  1670 net.cpp:100] Creating Layer conv8_2_mbox_loc
I0813 16:40:59.066709  1670 net.cpp:434] conv8_2_mbox_loc <- conv8_2_conv8_2_relu_0_split_1
I0813 16:40:59.066715  1670 net.cpp:408] conv8_2_mbox_loc -> conv8_2_mbox_loc
I0813 16:40:59.067989  1670 net.cpp:150] Setting up conv8_2_mbox_loc
I0813 16:40:59.067997  1670 net.cpp:157] Top shape: 8 16 3 3 (1152)
I0813 16:40:59.067999  1670 net.cpp:165] Memory required for data: 1999689600
I0813 16:40:59.068011  1670 layer_factory.hpp:77] Creating layer conv8_2_mbox_loc_perm
I0813 16:40:59.068015  1670 net.cpp:100] Creating Layer conv8_2_mbox_loc_perm
I0813 16:40:59.068018  1670 net.cpp:434] conv8_2_mbox_loc_perm <- conv8_2_mbox_loc
I0813 16:40:59.068023  1670 net.cpp:408] conv8_2_mbox_loc_perm -> conv8_2_mbox_loc_perm
I0813 16:40:59.068102  1670 net.cpp:150] Setting up conv8_2_mbox_loc_perm
I0813 16:40:59.068107  1670 net.cpp:157] Top shape: 8 3 3 16 (1152)
I0813 16:40:59.068109  1670 net.cpp:165] Memory required for data: 1999694208
I0813 16:40:59.068111  1670 layer_factory.hpp:77] Creating layer conv8_2_mbox_loc_flat
I0813 16:40:59.068116  1670 net.cpp:100] Creating Layer conv8_2_mbox_loc_flat
I0813 16:40:59.068119  1670 net.cpp:434] conv8_2_mbox_loc_flat <- conv8_2_mbox_loc_perm
I0813 16:40:59.068122  1670 net.cpp:408] conv8_2_mbox_loc_flat -> conv8_2_mbox_loc_flat
I0813 16:40:59.068140  1670 net.cpp:150] Setting up conv8_2_mbox_loc_flat
I0813 16:40:59.068145  1670 net.cpp:157] Top shape: 8 144 (1152)
I0813 16:40:59.068146  1670 net.cpp:165] Memory required for data: 1999698816
I0813 16:40:59.068148  1670 layer_factory.hpp:77] Creating layer conv8_2_mbox_conf
I0813 16:40:59.068154  1670 net.cpp:100] Creating Layer conv8_2_mbox_conf
I0813 16:40:59.068157  1670 net.cpp:434] conv8_2_mbox_conf <- conv8_2_conv8_2_relu_0_split_2
I0813 16:40:59.068161  1670 net.cpp:408] conv8_2_mbox_conf -> conv8_2_mbox_conf
I0813 16:40:59.070118  1670 net.cpp:150] Setting up conv8_2_mbox_conf
I0813 16:40:59.070127  1670 net.cpp:157] Top shape: 8 92 3 3 (6624)
I0813 16:40:59.070129  1670 net.cpp:165] Memory required for data: 1999725312
I0813 16:40:59.070134  1670 layer_factory.hpp:77] Creating layer conv8_2_mbox_conf_perm
I0813 16:40:59.070138  1670 net.cpp:100] Creating Layer conv8_2_mbox_conf_perm
I0813 16:40:59.070142  1670 net.cpp:434] conv8_2_mbox_conf_perm <- conv8_2_mbox_conf
I0813 16:40:59.070147  1670 net.cpp:408] conv8_2_mbox_conf_perm -> conv8_2_mbox_conf_perm
I0813 16:40:59.070228  1670 net.cpp:150] Setting up conv8_2_mbox_conf_perm
I0813 16:40:59.070233  1670 net.cpp:157] Top shape: 8 3 3 92 (6624)
I0813 16:40:59.070235  1670 net.cpp:165] Memory required for data: 1999751808
I0813 16:40:59.070238  1670 layer_factory.hpp:77] Creating layer conv8_2_mbox_conf_flat
I0813 16:40:59.070242  1670 net.cpp:100] Creating Layer conv8_2_mbox_conf_flat
I0813 16:40:59.070245  1670 net.cpp:434] conv8_2_mbox_conf_flat <- conv8_2_mbox_conf_perm
I0813 16:40:59.070248  1670 net.cpp:408] conv8_2_mbox_conf_flat -> conv8_2_mbox_conf_flat
I0813 16:40:59.070266  1670 net.cpp:150] Setting up conv8_2_mbox_conf_flat
I0813 16:40:59.070271  1670 net.cpp:157] Top shape: 8 828 (6624)
I0813 16:40:59.070272  1670 net.cpp:165] Memory required for data: 1999778304
I0813 16:40:59.070274  1670 layer_factory.hpp:77] Creating layer conv8_2_mbox_priorbox
I0813 16:40:59.070279  1670 net.cpp:100] Creating Layer conv8_2_mbox_priorbox
I0813 16:40:59.070282  1670 net.cpp:434] conv8_2_mbox_priorbox <- conv8_2_conv8_2_relu_0_split_3
I0813 16:40:59.070286  1670 net.cpp:434] conv8_2_mbox_priorbox <- data_data_0_split_5
I0813 16:40:59.070291  1670 net.cpp:408] conv8_2_mbox_priorbox -> conv8_2_mbox_priorbox
I0813 16:40:59.070310  1670 net.cpp:150] Setting up conv8_2_mbox_priorbox
I0813 16:40:59.070315  1670 net.cpp:157] Top shape: 1 2 144 (288)
I0813 16:40:59.070323  1670 net.cpp:165] Memory required for data: 1999779456
I0813 16:40:59.070325  1670 layer_factory.hpp:77] Creating layer conv9_2_mbox_loc
I0813 16:40:59.070331  1670 net.cpp:100] Creating Layer conv9_2_mbox_loc
I0813 16:40:59.070334  1670 net.cpp:434] conv9_2_mbox_loc <- conv9_2_conv9_2_relu_0_split_0
I0813 16:40:59.070339  1670 net.cpp:408] conv9_2_mbox_loc -> conv9_2_mbox_loc
I0813 16:40:59.071727  1670 net.cpp:150] Setting up conv9_2_mbox_loc
I0813 16:40:59.071734  1670 net.cpp:157] Top shape: 8 16 1 1 (128)
I0813 16:40:59.071738  1670 net.cpp:165] Memory required for data: 1999779968
I0813 16:40:59.071741  1670 layer_factory.hpp:77] Creating layer conv9_2_mbox_loc_perm
I0813 16:40:59.071745  1670 net.cpp:100] Creating Layer conv9_2_mbox_loc_perm
I0813 16:40:59.071748  1670 net.cpp:434] conv9_2_mbox_loc_perm <- conv9_2_mbox_loc
I0813 16:40:59.071753  1670 net.cpp:408] conv9_2_mbox_loc_perm -> conv9_2_mbox_loc_perm
I0813 16:40:59.071831  1670 net.cpp:150] Setting up conv9_2_mbox_loc_perm
I0813 16:40:59.071836  1670 net.cpp:157] Top shape: 8 1 1 16 (128)
I0813 16:40:59.071838  1670 net.cpp:165] Memory required for data: 1999780480
I0813 16:40:59.071841  1670 layer_factory.hpp:77] Creating layer conv9_2_mbox_loc_flat
I0813 16:40:59.071843  1670 net.cpp:100] Creating Layer conv9_2_mbox_loc_flat
I0813 16:40:59.071846  1670 net.cpp:434] conv9_2_mbox_loc_flat <- conv9_2_mbox_loc_perm
I0813 16:40:59.071849  1670 net.cpp:408] conv9_2_mbox_loc_flat -> conv9_2_mbox_loc_flat
I0813 16:40:59.071867  1670 net.cpp:150] Setting up conv9_2_mbox_loc_flat
I0813 16:40:59.071871  1670 net.cpp:157] Top shape: 8 16 (128)
I0813 16:40:59.071872  1670 net.cpp:165] Memory required for data: 1999780992
I0813 16:40:59.071874  1670 layer_factory.hpp:77] Creating layer conv9_2_mbox_conf
I0813 16:40:59.071880  1670 net.cpp:100] Creating Layer conv9_2_mbox_conf
I0813 16:40:59.071883  1670 net.cpp:434] conv9_2_mbox_conf <- conv9_2_conv9_2_relu_0_split_1
I0813 16:40:59.071887  1670 net.cpp:408] conv9_2_mbox_conf -> conv9_2_mbox_conf
I0813 16:40:59.073967  1670 net.cpp:150] Setting up conv9_2_mbox_conf
I0813 16:40:59.073976  1670 net.cpp:157] Top shape: 8 92 1 1 (736)
I0813 16:40:59.073978  1670 net.cpp:165] Memory required for data: 1999783936
I0813 16:40:59.073982  1670 layer_factory.hpp:77] Creating layer conv9_2_mbox_conf_perm
I0813 16:40:59.073987  1670 net.cpp:100] Creating Layer conv9_2_mbox_conf_perm
I0813 16:40:59.073990  1670 net.cpp:434] conv9_2_mbox_conf_perm <- conv9_2_mbox_conf
I0813 16:40:59.073994  1670 net.cpp:408] conv9_2_mbox_conf_perm -> conv9_2_mbox_conf_perm
I0813 16:40:59.074075  1670 net.cpp:150] Setting up conv9_2_mbox_conf_perm
I0813 16:40:59.074080  1670 net.cpp:157] Top shape: 8 1 1 92 (736)
I0813 16:40:59.074082  1670 net.cpp:165] Memory required for data: 1999786880
I0813 16:40:59.074084  1670 layer_factory.hpp:77] Creating layer conv9_2_mbox_conf_flat
I0813 16:40:59.074088  1670 net.cpp:100] Creating Layer conv9_2_mbox_conf_flat
I0813 16:40:59.074090  1670 net.cpp:434] conv9_2_mbox_conf_flat <- conv9_2_mbox_conf_perm
I0813 16:40:59.074095  1670 net.cpp:408] conv9_2_mbox_conf_flat -> conv9_2_mbox_conf_flat
I0813 16:40:59.074111  1670 net.cpp:150] Setting up conv9_2_mbox_conf_flat
I0813 16:40:59.074115  1670 net.cpp:157] Top shape: 8 92 (736)
I0813 16:40:59.074116  1670 net.cpp:165] Memory required for data: 1999789824
I0813 16:40:59.074120  1670 layer_factory.hpp:77] Creating layer conv9_2_mbox_priorbox
I0813 16:40:59.074123  1670 net.cpp:100] Creating Layer conv9_2_mbox_priorbox
I0813 16:40:59.074126  1670 net.cpp:434] conv9_2_mbox_priorbox <- conv9_2_conv9_2_relu_0_split_2
I0813 16:40:59.074129  1670 net.cpp:434] conv9_2_mbox_priorbox <- data_data_0_split_6
I0813 16:40:59.074134  1670 net.cpp:408] conv9_2_mbox_priorbox -> conv9_2_mbox_priorbox
I0813 16:40:59.074152  1670 net.cpp:150] Setting up conv9_2_mbox_priorbox
I0813 16:40:59.074156  1670 net.cpp:157] Top shape: 1 2 16 (32)
I0813 16:40:59.074158  1670 net.cpp:165] Memory required for data: 1999789952
I0813 16:40:59.074167  1670 layer_factory.hpp:77] Creating layer mbox_loc
I0813 16:40:59.074172  1670 net.cpp:100] Creating Layer mbox_loc
I0813 16:40:59.074175  1670 net.cpp:434] mbox_loc <- conv4_3_norm_mbox_loc_flat
I0813 16:40:59.074178  1670 net.cpp:434] mbox_loc <- fc6_mbox_loc_flat
I0813 16:40:59.074182  1670 net.cpp:434] mbox_loc <- conv6_2_mbox_loc_flat
I0813 16:40:59.074184  1670 net.cpp:434] mbox_loc <- conv7_2_mbox_loc_flat
I0813 16:40:59.074187  1670 net.cpp:434] mbox_loc <- conv8_2_mbox_loc_flat
I0813 16:40:59.074189  1670 net.cpp:434] mbox_loc <- conv9_2_mbox_loc_flat
I0813 16:40:59.074193  1670 net.cpp:408] mbox_loc -> mbox_loc
I0813 16:40:59.074214  1670 net.cpp:150] Setting up mbox_loc
I0813 16:40:59.074218  1670 net.cpp:157] Top shape: 8 34928 (279424)
I0813 16:40:59.074220  1670 net.cpp:165] Memory required for data: 2000907648
I0813 16:40:59.074223  1670 layer_factory.hpp:77] Creating layer mbox_conf
I0813 16:40:59.074226  1670 net.cpp:100] Creating Layer mbox_conf
I0813 16:40:59.074229  1670 net.cpp:434] mbox_conf <- conv4_3_norm_mbox_conf_flat
I0813 16:40:59.074231  1670 net.cpp:434] mbox_conf <- fc6_mbox_conf_flat
I0813 16:40:59.074234  1670 net.cpp:434] mbox_conf <- conv6_2_mbox_conf_flat
I0813 16:40:59.074237  1670 net.cpp:434] mbox_conf <- conv7_2_mbox_conf_flat
I0813 16:40:59.074239  1670 net.cpp:434] mbox_conf <- conv8_2_mbox_conf_flat
I0813 16:40:59.074241  1670 net.cpp:434] mbox_conf <- conv9_2_mbox_conf_flat
I0813 16:40:59.074245  1670 net.cpp:408] mbox_conf -> mbox_conf
I0813 16:40:59.074262  1670 net.cpp:150] Setting up mbox_conf
I0813 16:40:59.074266  1670 net.cpp:157] Top shape: 8 200836 (1606688)
I0813 16:40:59.074268  1670 net.cpp:165] Memory required for data: 2007334400
I0813 16:40:59.074270  1670 layer_factory.hpp:77] Creating layer mbox_priorbox
I0813 16:40:59.074273  1670 net.cpp:100] Creating Layer mbox_priorbox
I0813 16:40:59.074275  1670 net.cpp:434] mbox_priorbox <- conv4_3_norm_mbox_priorbox
I0813 16:40:59.074277  1670 net.cpp:434] mbox_priorbox <- fc6_mbox_priorbox
I0813 16:40:59.074280  1670 net.cpp:434] mbox_priorbox <- conv6_2_mbox_priorbox
I0813 16:40:59.074282  1670 net.cpp:434] mbox_priorbox <- conv7_2_mbox_priorbox
I0813 16:40:59.074285  1670 net.cpp:434] mbox_priorbox <- conv8_2_mbox_priorbox
I0813 16:40:59.074288  1670 net.cpp:434] mbox_priorbox <- conv9_2_mbox_priorbox
I0813 16:40:59.074292  1670 net.cpp:408] mbox_priorbox -> mbox_priorbox
I0813 16:40:59.074309  1670 net.cpp:150] Setting up mbox_priorbox
I0813 16:40:59.074314  1670 net.cpp:157] Top shape: 1 2 34928 (69856)
I0813 16:40:59.074316  1670 net.cpp:165] Memory required for data: 2007613824
I0813 16:40:59.074318  1670 layer_factory.hpp:77] Creating layer mbox_loss
I0813 16:40:59.074323  1670 net.cpp:100] Creating Layer mbox_loss
I0813 16:40:59.074326  1670 net.cpp:434] mbox_loss <- mbox_loc
I0813 16:40:59.074328  1670 net.cpp:434] mbox_loss <- mbox_conf
I0813 16:40:59.074331  1670 net.cpp:434] mbox_loss <- mbox_priorbox
…
name: "VGG_YUUAV_SSD_300x300_test"
state {
  phase: TEST
}
layer {
  name: "data"
  type: "AnnotatedData"
  top: "data"
  top: "label"
  include {
    phase: TEST
  }
  transform_param {
    mean_value: 104
    mean_value: 117
    mean_value: 123
    resize_param {
      prob: 1
      resize_mode: WARP
      height: 300
      width: 300
      interp_mode: LINEAR
    }
  }
  data_param {
    source: "data/yuuav/yuuav_test_lmdb"
    batch_size: 8
    backend: LMDB
  }
  annotated_data_param {
    batch_sampler {
    }
    label_map_file: "data/labelmap_yuuav.prototxt"
  }
}
layer {
  name: "conv1_1"
  type: "Convolution"
  bottom: "data"
  top: "conv1_1"
  param {
    lr_mult: 1
    decay_mult: 1
  }
  param {
    lr_mult: 2
    decay_mult: 0
  }
  convolution_param {
    num_output: 64
    pad: 1
    kernel_size: 3
    weight_filler {
      type: "xavier"
    }
    bias_filler {
      type: "constant"
      value: 0
    }
  }
}
layer {
  name: "relu1_1"
  type: "ReLU"
  bottom: "conv1_1"
  top: "conv1_1"
}
layer {
  name: "conv1_2"
  type: "Convolution"
  bottom: "conv1_1"
  top: "conv1_2"
  param {
    lr_mult: 1
    decay_mult: 1
  }
  param {
    lr_mult: 2
    decay_mult: 0
  }
  convolution_param {
    num_output: 64
    pad: 1
    kernel_size: 3
    weight_filler {
      type: "xavier"
    }
    bias_filler {
      type: "constant"
      value: 0
    }
  }
}
layer {
  name: "relu1_2"
  type: "ReLU"
  bottom: "conv1_2"
  top: "conv1_2"
}
layer {
  name: "pool1"
  type: "Pooling"
  bottom: "conv1_2"
  top: "pool1"
  pooling_param {
    pool: MAX
    kernel_size: 2
    stride: 2
  }
}
layer {
  name: "conv2_1"
  type: "Convolution"
  bottom: "pool1"
  top: "conv2_1"
  param {
    lr_mult: 1
    decay_mult: 1
  }
  param {
    lr_mult: 2
    decay_mult: 0
  }
  convolution_param {
    num_output: 128
    pad: 1
    kernel_size: 3
    weight_filler {
      type: "xavier"
    }
    bias_filler {
      type: "constant"
      value: 0
    }
  }
}
layer {
  name: "relu2_1"
  type: "ReLU"
  bottom: "conv2_1"
  top: "conv2_1"
}
layer {
  name: "conv2_2"
  type: "Convolution"
  bottom: "conv2_1"
  top: "conv2_2"
  param {
    lr_mult: 1
    decay_mult: 1
  }
  param {
    lr_mult: 2
    decay_mult: 0
  }
  convolution_param {
    num_output: 128
    pad: 1
    kernel_size: 3
    weight_filler {
      type: "xavier"
    }
    bias_filler {
      type: "constant"
      value: 0
    }
  }
}
layer {
  name: "relu2_2"
  type: "ReLU"
  bottom: "conv2_2"
  top: "conv2_2"
}
layer {
  name: "pool2"
  type: "Pooling"
  bottom: "conv2_2"
  top: "pool2"
  pooling_param {
    pool: MAX
    kernel_size: 2
    stride: 2
  }
}
layer {
  name: "conv3_1"
  type: "Convolution"
  bottom: "pool2"
  top: "conv3_1"
  param {
    lr_mult: 1
    decay_mult: 1
  }
  param {
    lr_mult: 2
    decay_mult: 0
  }
  convolution_param {
    num_output: 256
    pad: 1
    kernel_size: 3
    weight_filler {
      type: "xavier"
    }
    bias_filler {
      type: "constant"
      value: 0
    }
  }
}
layer {
  name: "relu3_1"
  type: "ReLU"
  bottom: "conv3_1"
  top: "conv3_1"
}
layer {
  name: "conv3_2"
  type: "Convolution"
  bottom: "conv3_1"
  top: "conv3_2"
  param {
    lr_mult: 1
    decay_mult: 1
  }
  param {
    lr_mult: 2
    decay_mult: 0
  }
  convolution_param {
    num_output: 256
    pad: 1
    kernel_size: 3
    weight_filler {
      type: "xavier"
    }
    bias_filler {
      type: "constant"
      value: 0
    }
  }
}
layer {
  name: "relu3_2"
  type: "ReLU"
  bottom: "conv3_2"
  top: "conv3_2"
}
layer {
  name: "conv3_3"
  type: "Convolution"
  bottom: "conv3_2"
  top: "conv3_3"
  param {
    lr_mult: 1
    decay_mult: 1
  }
  param {
    lr_mult: 2
    decay_mult: 0
  }
  convolution_param {
    num_output: 256
    pad: 1
    kernel_size: 3
    weight_filler {
      type: "xavier"
    }
    bias_filler {
      type: "constant"
      value: 0
    }
  }
}
layer {
  name: "relu3_3"
  type: "ReLU"
  bottom: "conv3_3"
  top: "conv3_3"
}
layer {
  name: "pool3"
  type: "Pooling"
  bottom: "conv3_3"
  top: "pool3"
  pooling_param {
    pool: MAX
    kernel_size: 2
    stride: 2
  }
}
layer {
  name: "conv4_1"
  type: "Convolution"
  bottom: "pool3"
  top: "conv4_1"
  param {
    lr_mult: 1
    decay_mult: 1
  }
  param {
    lr_mult: 2
    decay_mult: 0
  }
  convolution_param {
    num_output: 512
    pad: 1
    kernel_size: 3
    weight_filler {
      type: "xavier"
    }
    bias_filler {
      type: "constant"
      value: 0
    }
  }
}
layer {
  name: "relu4_1"
  type: "ReLU"
  bottom: "conv4_1"
  top: "conv4_1"
}
layer {
  name: "conv4_2"
  type: "Convolution"
  bottom: "conv4_1"
  top: "conv4_2"
  param {
    lr_mult: 1
    decay_mult: 1
  }
  param {
    lr_mult: 2
    decay_mult: 0
  }
  convolution_param {
    num_output: 512
    pad: 1
    kernel_size: 3
    weight_filler {
      type: "xavier"
    }
    bias_filler {
      type: "constant"
      value: 0
    }
  }
}
layer {
  name: "relu4_2"
  type: "ReLU"
  bottom: "conv4_2"
  top: "conv4_2"
}
layer {
  name: "conv4_3"
  type: "Convolution"
  bottom: "conv4_2"
  top: "conv4_3"
  param {
    lr_mult: 1
    decay_mult: 1
  }
  param {
    lr_mult: 2
    decay_mult: 0
  }
  convolution_param {
    num_output: 512
    pad: 1
    kernel_size: 3
    weight_filler {
      type: "xavier"
    }
    bias_filler {
      type: "constant"
      value: 0
    }
  }
}
layer {
  name: "relu4_3"
  type: "ReLU"
  bottom: "conv4_3"
  top: "conv4_3"
}
layer {
  name: "pool4"
  type: "Pooling"
  bottom: "conv4_3"
  top: "pool4"
  pooling_param {
    pool: MAX
    kernel_size: 2
    stride: 2
  }
}
layer {
  name: "conv5_1"
  type: "Convolution"
  bottom: "pool4"
  top: "conv5_1"
  param {
    lr_mult: 1
    decay_mult: 1
  }
  param {
    lr_mult: 2
    decay_mult: 0
  }
  convolution_param {
    num_output: 512
    pad: 1
    kernel_size: 3
    weight_filler {
      type: "xavier"
    }
    bias_filler {
      type: "constant"
      value: 0
    }
    dilation: 1
  }
}
layer {
  name: "relu5_1"
  type: "ReLU"
  bottom: "conv5_1"
  top: "conv5_1"
}
layer {
  name: "conv5_2"
  type: "Convolution"
  bottom: "conv5_1"
  top: "conv5_2"
  param {
    lr_mult: 1
    decay_mult: 1
  }
  param {
    lr_mult: 2
    decay_mult: 0
  }
  convolution_param {
    num_output: 512
    pad: 1
    kernel_size: 3
    weight_filler {
      type: "xavier"
    }
    bias_filler {
      type: "constant"
      value: 0
    }
    dilation: 1
  }
}
layer {
  name: "relu5_2"
  type: "ReLU"
  bottom: "conv5_2"
  top: "conv5_2"
}
layer {
  name: "conv5_3"
  type: "Convolution"
  bottom: "conv5_2"
  top: "conv5_3"
  param {
    lr_mult: 1
    decay_mult: 1
  }
  param {
    lr_mult: 2
    decay_mult: 0
  }
  convolution_param {
    num_output: 512
    pad: 1
    kernel_size: 3
    weight_filler {
      type: "xavier"
    }
    bias_filler {
      type: "constant"
      value: 0
    }
    dilation: 1
  }
}
layer {
  name: "relu5_3"
  type: "ReLU"
  bottom: "conv5_3"
  top: "conv5_3"
}
layer {
  name: "pool5"
  type: "Pooling"
  bottom: "conv5_3"
  top: "pool5"
  pooling_param {
    pool: MAX
    kernel_size: 3
    stride: 1
    pad: 1
  }
}
layer {
  name: "fc6"
  type: "Convolution"
  bottom: "pool5"
  top: "fc6"
  param {
    lr_mult: 1
    decay_mult: 1
  }
  param {
    lr_mult: 2
    decay_mult: 0
  }
  convolution_param {
    num_output: 1024
    pad: 6
    kernel_size: 3
    weight_filler {
      type: "xavier"
    }
    bias_filler {
      type: "constant"
      value: 0
    }
    dilation: 6
  }
}
layer {
  name: "relu6"
  type: "ReLU"
  bottom: "fc6"
  top: "fc6"
}
layer {
  name: "fc7"
  type: "Convolution"
  bottom: "fc6"
  top: "fc7"
  param {
    lr_mult: 1
    decay_mult: 1
  }
  param {
    lr_mult: 2
    decay_mult: 0
  }
  convolution_param {
    num_output: 1024
    kernel_size: 1
    weight_filler {
      type: "xavier"
    }
    bias_filler {
      type: "constant"
      value: 0
    }
  }
}
layer {
  name: "relu7"
  type: "ReLU"
  bottom: "fc7"
  top: "fc7"
}
layer {
  name: "conv6_1"
  type: "Convolution"
  bottom: "fc7"
  top: "conv6_1"
  param {
    lr_mult: 1
    decay_mult: 1
  }
  param {
    lr_mult: 2
    decay_mult: 0
  }
  convolution_param {
    num_output: 256
    pad: 0
    kernel_size: 1
    stride: 1
    weight_filler {
      type: "xavier"
    }
    bias_filler {
      type: "constant"
      value: 0
    }
  }
}
layer {
  name: "conv6_1_relu"
  type: "ReLU"
  bottom: "conv6_1"
  top: "conv6_1"
}
layer {
  name: "conv6_2"
  type: "Convolution"
  bottom: "conv6_1"
  top: "conv6_2"
  param {
    lr_mult: 1
    decay_mult: 1
  }
  param {
    lr_mult: 2
    decay_mult: 0
  }
  convolution_param {
    num_output: 512
    pad: 1
    kernel_size: 3
    stride: 2
    weight_filler {
      type: "xavier"
    }
    bias_filler {
      type: "constant"
      value: 0
    }
  }
}
layer {
  name: "conv6_2_relu"
  type: "ReLU"
  bottom: "conv6_2"
  top: "conv6_2"
}
layer {
  name: "conv7_1"
  type: "Convolution"
  bottom: "conv6_2"
  top: "conv7_1"
  param {
    lr_mult: 1
    decay_mult: 1
  }
  param {
    lr_mult: 2
    decay_mult: 0
  }
  convolution_param {
    num_output: 128
    pad: 0
    kernel_size: 1
    stride: 1
    weight_filler {
      type: "xavier"
    }
    bias_filler {
      type: "constant"
      value: 0
    }
  }
}
layer {
  name: "conv7_1_relu"
  type: "ReLU"
  bottom: "conv7_1"
  top: "conv7_1"
}
layer {
  name: "conv7_2"
  type: "Convolution"
  bottom: "conv7_1"
  top: "conv7_2"
  param {
    lr_mult: 1
    decay_mult: 1
  }
  param {
    lr_mult: 2
    decay_mult: 0
  }
  convolution_param {
    num_output: 256
    pad: 1
    kernel_size: 3
    stride: 2
    weight_filler {
      type: "xavier"
    }
    bias_filler {
      type: "constant"
      value: 0
    }
  }
}
layer {
  name: "conv7_2_relu"
  type: "ReLU"
  bottom: "conv7_2"
  top: "conv7_2"
}
layer {
  name: "conv8_1"
  type: "Convolution"
  bottom: "conv7_2"
  top: "conv8_1"
  param {
    lr_mult: 1
    decay_mult: 1
  }
  param {
    lr_mult: 2
    decay_mult: 0
  }
  convolution_param {
    num_output: 128
    pad: 0
    kernel_size: 1
    stride: 1
    weight_filler {
      type: "xavier"
    }
    bias_filler {
      type: "constant"
      value: 0
    }
  }
}
layer {
  name: "conv8_1_relu"
  type: "ReLU"
  bottom: "conv8_1"
  top: "conv8_1"
}
layer {
  name: "conv8_2"
  type: "Convolution"
  bottom: "conv8_1"
  top: "conv8_2"
  param {
    lr_mult: 1
    decay_mult: 1
  }
  param {
    lr_mult: 2
    decay_mult: 0
  }
  convolution_param {
    num_output: 256
    pad: 0
    kernel_size: 3
    stride: 1
    weight_filler {
      type: "xavier"
    }
    bias_filler {
      type: "constant"
      value: 0
    }
  }
}
layer {
  name: "conv8_2_relu"
  type: "ReLU"
  bottom: "conv8_2"
  top: "conv8_2"
}
layer {
  name: "conv9_1"
  type: "Convolution"
  bottom: "conv8_2"
  top: "conv9_1"
  param {
    lr_mult: 1
    decay_mult: 1
  }
  param {
    lr_mult: 2
    decay_mult: 0
  }
  convolution_param {
    num_output: 128
    pad: 0
    kernel_size: 1
    stride: 1
    weight_filler {
      type: "xavier"
    }
    bias_filler {
      type: "constant"
      value: 0
    }
  }
}
layer {
  name: "conv9_1_relu"
  type: "ReLU"
  bottom: "conv9_1"
  top: "conv9_1"
}
layer {
  name: "conv9_2"
  type: "Convolution"
  bottom: "conv9_1"
  top: "conv9_2"
  param {
    lr_mult: 1
    decay_mult: 1
  }
  param {
    lr_mult: 2
    decay_mult: 0
  }
  convolution_param {
    num_output: 256
    pad: 0
    kernel_size: 3
    stride: 1
    weight_filler {
      type: "xavier"
    }
    bias_filler {
      type: "constant"
      value: 0
    }
  }
}
layer {
  name: "conv9_2_relu"
  type: "ReLU"
  bottom: "conv9_2"
  top: "conv9_2"
}
layer {
  name: "conv4_3_norm"
  type: "Normalize"
  bottom: "conv4_3"
  top: "conv4_3_norm"
  norm_param {
    across_spatial: false
    scale_filler {
      type: "constant"
      value: 20
    }
    channel_shared: false
  }
}
layer {
  name: "conv4_3_norm_mbox_loc"
  type: "Convolution"
  bottom: "conv4_3_norm"
  top: "conv4_3_norm_mbox_loc"
  param {
    lr_mult: 1
    decay_mult: 1
  }
  param {
    lr_mult: 2
    decay_mult: 0
  }
  convolution_param {
    num_output: 16
    pad: 1
    kernel_size: 3
    stride: 1
    weight_filler {
      type: "xavier"
    }
    bias_filler {
      type: "constant"
      value: 0
    }
  }
}
layer {
  name: "conv4_3_norm_mbox_loc_perm"
  type: "Permute"
  bottom: "conv4_3_norm_mbox_loc"
  top: "conv4_3_norm_mbox_loc_perm"
  permute_param {
    order: 0
    order: 2
    order: 3
    order: 1
  }
}
layer {
  name: "conv4_3_norm_mbox_loc_flat"
  type: "Flatten"
  bottom: "conv4_3_norm_mbox_loc_perm"
  top: "conv4_3_norm_mbox_loc_flat"
  flatten_param {
    axis: 1
  }
}
layer {
  name: "conv4_3_norm_mbox_conf"
  type: "Convolution"
  bottom: "conv4_3_norm"
  top: "conv4_3_norm_mbox_conf"
  param {
    lr_mult: 1
    decay_mult: 1
  }
  param {
    lr_mult: 2
    decay_mult: 0
  }
  convolution_param {
    num_output: 92
    pad: 1
    kernel_size: 3
    stride: 1
    weight_filler {
      type: "xavier"
    }
    bias_filler {
      type: "constant"
      value: 0
    }
  }
}
layer {
  name: "conv4_3_norm_mbox_conf_perm"
  type: "Permute"
  bottom: "conv4_3_norm_mbox_conf"
  top: "conv4_3_norm_mbox_conf_perm"
  permute_param {
    order: 0
    order: 2
    order: 3
    order: 1
  }
}
layer {
  name: "conv4_3_norm_mbox_conf_flat"
  type: "Flatten"
  bottom: "conv4_3_norm_mbox_conf_perm"
  top: "conv4_3_norm_mbox_conf_flat"
  flatten_param {
    axis: 1
  }
}
layer {
  name: "conv4_3_norm_mbox_priorbox"
  type: "PriorBox"
  bottom: "conv4_3_norm"
  bottom: "data"
  top: "conv4_3_norm_mbox_priorbox"
  prior_box_param {
    min_size: 30
    max_size: 60
    aspect_ratio: 2
    flip: true
    clip: false
    variance: 0.1
    variance: 0.1
    variance: 0.2
    variance: 0.2
    step: 8
    offset: 0.5
  }
}
layer {
  name: "fc6_mbox_loc"
  type: "Convolution"
  bottom: "fc6"
  top: "fc6_mbox_loc"
  param {
    lr_mult: 1
    decay_mult: 1
  }
  param {
    lr_mult: 2
    decay_mult: 0
  }
  convolution_param {
    num_output: 24
    pad: 1
    kernel_size: 3
    stride: 1
    weight_filler {
      type: "xavier"
    }
    bias_filler {
      type: "constant"
      value: 0
    }
  }
}
layer {
  name: "fc6_mbox_loc_perm"
  type: "Permute"
  bottom: "fc6_mbox_loc"
  top: "fc6_mbox_loc_perm"
  permute_param {
    order: 0
    order: 2
    order: 3
    order: 1
  }
}
layer {
  name: "fc6_mbox_loc_flat"
  type: "Flatten"
  bottom: "fc6_mbox_loc_perm"
  top: "fc6_mbox_loc_flat"
  flatten_param {
    axis: 1
  }
}
layer {
  name: "fc6_mbox_conf"
  type: "Convolution"
  bottom: "fc6"
  top: "fc6_mbox_conf"
  param {
    lr_mult: 1
    decay_mult: 1
  }
  param {
    lr_mult: 2
    decay_mult: 0
  }
  convolution_param {
    num_output: 138
    pad: 1
    kernel_size: 3
    stride: 1
    weight_filler {
      type: "xavier"
    }
    bias_filler {
      type: "constant"
      value: 0
    }
  }
}
layer {
  name: "fc6_mbox_conf_perm"
  type: "Permute"
  bottom: "fc6_mbox_conf"
  top: "fc6_mbox_conf_perm"
  permute_param {
    order: 0
    order: 2
    order: 3
    order: 1
  }
}
layer {
  name: "fc6_mbox_conf_flat"
  type: "Flatten"
  bottom: "fc6_mbox_conf_perm"
  top: "fc6_mbox_conf_flat"
  flatten_param {
    axis: 1
  }
}
layer {
  name: "fc6_mbox_priorbox"
  type: "PriorBox"
  bottom: "fc6"
  bottom: "data"
  top: "fc6_mbox_priorbox"
  prior_box_param {
    min_size: 60
    max_size: 111
    aspect_ratio: 2
    aspect_ratio: 3
    flip: true
    clip: false
    variance: 0.1
    variance: 0.1
    variance: 0.2
    variance: 0.2
    step: 16
    offset: 0.5
  }
}
layer {
  name: "conv6_2_mbox_loc"
  type: "Convolution"
  bottom: "conv6_2"
  top: "conv6_2_mbox_loc"
  param {
    lr_mult: 1
    decay_mult: 1
  }
  param {
    lr_mult: 2
    decay_mult: 0
  }
  convolution_param {
    num_output: 24
    pad: 1
    kernel_size: 3
    stride: 1
    weight_filler {
      type: "xavier"
    }
    bias_filler {
      type: "constant"
      value: 0
    }
  }
}
layer {
  name: "conv6_2_mbox_loc_perm"
  type: "Permute"
  bottom: "conv6_2_mbox_loc"
  top: "conv6_2_mbox_loc_perm"
  permute_param {
    order: 0
    order: 2
    order: 3
    order: 1
  }
}
layer {
  name: "conv6_2_mbox_loc_flat"
  type: "Flatten"
  bottom: "conv6_2_mbox_loc_perm"
  top: "conv6_2_mbox_loc_flat"
  flatten_param {
    axis: 1
  }
}
layer {
  name: "conv6_2_mbox_conf"
  type: "Convolution"
  bottom: "conv6_2"
  top: "conv6_2_mbox_conf"
  param {
    lr_mult: 1
    decay_mult: 1
  }
  param {
    lr_mult: 2
    decay_mult: 0
  }
  convolution_param {
    num_output: 138
    pad: 1
    kernel_size: 3
    stride: 1
    weight_filler {
      type: "xavier"
    }
    bias_filler {
      type: "constant"
      value: 0
    }
  }
}
layer {
  name: "conv6_2_mbox_conf_perm"
  type: "Permute"
  bottom: "conv6_2_mbox_conf"
  top: "conv6_2_mbox_conf_perm"
  permute_param {
    order: 0
    order: 2
    order: 3
    order: 1
  }
}
layer {
  name: "conv6_2_mbox_conf_flat"
  type: "Flatten"
  bottom: "conv6_2_mbox_conf_perm"
  top: "conv6_2_mbox_conf_flat"
  flatten_param {
    axis: 1
  }
}
layer {
  name: "conv6_2_mbox_priorbox"
  type: "PriorBox"
  bottom: "conv6_2"
  bottom: "data"
  top: "conv6_2_mbox_priorbox"
  prior_box_param {
    min_size: 111
    max_size: 162
    aspect_ratio: 2
    aspect_ratio: 3
    flip: true
    clip: false
    variance: 0.1
    variance: 0.1
    variance: 0.2
    variance: 0.2
    step: 32
    offset: 0.5
  }
}
layer {
  name: "conv7_2_mbox_loc"
  type: "Convolution"
  bottom: "conv7_2"
  top: "conv7_2_mbox_loc"
  param {
    lr_mult: 1
    decay_mult: 1
  }
  param {
    lr_mult: 2
    decay_mult: 0
  }
  convolution_param {
    num_output: 24
    pad: 1
    kernel_size: 3
    stride: 1
    weight_filler {
      type: "xavier"
    }
    bias_filler {
      type: "constant"
      value: 0
    }
  }
}
layer {
  name: "conv7_2_mbox_loc_perm"
  type: "Permute"
  bottom: "conv7_2_mbox_loc"
  top: "conv7_2_mbox_loc_perm"
  permute_param {
    order: 0
    order: 2
    order: 3
    order: 1
  }
}
layer {
  name: "conv7_2_mbox_loc_flat"
  type: "Flatten"
  bottom: "conv7_2_mbox_loc_perm"
  top: "conv7_2_mbox_loc_flat"
  flatten_param {
    axis: 1
  }
}
layer {
  name: "conv7_2_mbox_conf"
  type: "Convolution"
  bottom: "conv7_2"
  top: "conv7_2_mbox_conf"
  param {
    lr_mult: 1
    decay_mult: 1
  }
  param {
    lr_mult: 2
    decay_mult: 0
  }
  convolution_param {
    num_output: 138
    pad: 1
    kernel_size: 3
    stride: 1
    weight_filler {
      type: "xavier"
    }
    bias_filler {
      type: "constant"
      value: 0
    }
  }
}
layer {
  name: "conv7_2_mbox_conf_perm"
  type: "Permute"
  bottom: "conv7_2_mbox_conf"
  top: "conv7_2_mbox_conf_perm"
  permute_param {
    order: 0
    order: 2
    order: 3
    order: 1
  }
}
layer {
  name: "conv7_2_mbox_conf_flat"
  type: "Flatten"
  bottom: "conv7_2_mbox_conf_perm"
  top: "conv7_2_mbox_conf_flat"
  flatten_param {
    axis: 1
  }
}
layer {
  name: "conv7_2_mbox_priorbox"
  type: "PriorBox"
  bottom: "conv7_2"
  bottom: "data"
  top: "conv7_2_mbox_priorbox"
  prior_box_param {
    min_size: 162
    max_size: 213
    aspect_ratio: 2
    aspect_ratio: 3
    flip: true
    clip: false
    variance: 0.1
    variance: 0.1
    variance: 0.2
    variance: 0.2
    step: 64
    offset: 0.5
  }
}
layer {
  name: "conv8_2_mbox_loc"
  type: "Convolution"
  bottom: "conv8_2"
  top: "conv8_2_mbox_loc"
  param {
    lr_mult: 1
    decay_mult: 1
  }
  param {
    lr_mult: 2
    decay_mult: 0
  }
  convolution_param {
    num_output: 16
    pad: 1
    kernel_size: 3
    stride: 1
    weight_filler {
      type: "xavier"
    }
    bias_filler {
      type: "constant"
      value: 0
    }
  }
}
layer {
  name: "conv8_2_mbox_loc_perm"
  type: "Permute"
  bottom: "conv8_2_mbox_loc"
  top: "conv8_2_mbox_loc_perm"
  permute_param {
    order: 0
    order: 2
    order: 3
    order: 1
  }
}
layer {
  name: "conv8_2_mbox_loc_flat"
  type: "Flatten"
  bottom: "conv8_2_mbox_loc_perm"
  top: "conv8_2_mbox_loc_flat"
  flatten_param {
    axis: 1
  }
}
layer {
  name: "conv8_2_mbox_conf"
  type: "Convolution"
  bottom: "conv8_2"
  top: "conv8_2_mbox_conf"
  param {
    lr_mult: 1
    decay_mult: 1
  }
  param {
    lr_mult: 2
    decay_mult: 0
  }
  convolution_param {
    num_output: 92
    pad: 1
    kernel_size: 3
    stride: 1
    weight_filler {
      type: "xavier"
    }
    bias_filler {
      type: "constant"
      value: 0
    }
  }
}
layer {
  name: "conv8_2_mbox_conf_perm"
  type: "Permute"
  bottom: "conv8_2_mbox_conf"
  top: "conv8_2_mbox_conf_perm"
  permute_param {
    order: 0
    order: 2
    order: 3
    order: 1
  }
}
layer {
  name: "conv8_2_mbox_conf_flat"
  type: "Flatten"
  bottom: "conv8_2_mbox_conf_perm"
  top: "conv8_2_mbox_conf_flat"
  flatten_param {
    axis: 1
  }
}
layer {
  name: "conv8_2_mbox_priorbox"
  type: "PriorBox"
  bottom: "conv8_2"
  bottom: "data"
  top: "conv8_2_mbox_priorbox"
  prior_box_param {
    min_size: 213
    max_size: 264
    aspect_ratio: 2
    flip: true
    clip: false
    variance: 0.1
    variance: 0.1
    variance: 0.2
    variance: 0.2
    step: 100
    offset: 0.5
  }
}
layer {
  name: "conv9_2_mbox_loc"
  type: "Convolution"
  bottom: "conv9_2"
  top: "conv9_2_mbox_loc"
  param {
    lr_mult: 1
    decay_mult: 1
  }
  param {
    lr_mult: 2
    decay_mult: 0
  }
  convolution_param {
    num_output: 16
    pad: 1
    kernel_size: 3
    stride: 1
    weight_filler {
      type: "xavier"
    }
    bias_filler {
      type: "constant"
      value: 0
    }
  }
}
layer {
  name: "conv9_2_mbox_loc_perm"
  type: "Permute"
  bottom: "conv9_2_mbox_loc"
  top: "conv9_2_mbox_loc_perm"
  permute_param {
    order: 0
    order: 2
    order: 3
    order: 1
  }
}
layer {
  name: "conv9_2_mbox_loc_flat"
  type: "Flatten"
  bottom: "conv9_2_mbox_loc_perm"
  top: "conv9_2_mbox_loc_flat"
  flatten_param {
    axis: 1
  }
}
layer {
  name: "conv9_2_mbox_conf"
  type: "Convolution"
  bottom: "conv9_2"
  top: "conv9_2_mbox_conf"
  param {
    lr_mult: 1
    decay_mult: 1
  }
  param {
    lr_mult: 2
    decay_mult: 0
  }
  convolution_param {
    num_output: 92
    pad: 1
    kernel_size: 3
    stride: 1
    weight_filler {
      type: "xavier"
    }
    bias_filler {
      type: "constant"
      value: 0
    }
  }
}
layer {
  name: "conv9_2_mbox_conf_perm"
  type: "Permute"
  bottom: "conv9_2_mbox_conf"
  top: "conv9_2_mbox_conf_perm"
  permute_param {
    order: 0
    order: 2
    order: 3
    order: 1
  }
}
layer {
  name: "conv9_2_mbox_conf_flat"
  type: "Flatten"
  bottom: "conv9_2_mbox_conf_perm"
  top: "conv9_2_mbox_conf_flat"
  flatten_param {
    axis: 1
  }
}
layer {
  name: "conv9_2_mbox_priorbox"
  type: "PriorBox"
  bottom: "conv9_2"
  bottom: "data"
  top: "conv9_2_mbox_priorbox"
  prior_box_param {
    min_size: 264
    max_size: 315
    aspect_ratio: 2
    flip: true
    clip: false
    variance: 0.1
    variance: 0.1
    variance: 0.2
    variance: 0.2
    step: 300
    offset: 0.5
  }
}
layer {
  name: "mbox_loc"
  type: "Concat"
  bottom: "conv4_3_norm_mbox_loc_flat"
  bottom: "fc6_mbox_loc_flat"
  bottom: "conv6_2_mbox_loc_flat"
  bottom: "conv7_2_mbox_loc_flat"
  bottom: "conv8_2_mbox_loc_flat"
  bottom: "conv9_2_mbox_loc_flat"
  top: "mbox_loc"
  concat_param {
    axis: 1
  }
}
layer {
  name: "mbox_conf"
  type: "Concat"
  bottom: "conv4_3_norm_mbox_conf_flat"
  bottom: "fc6_mbox_conf_flat"
  bottom: "conv6_2_mbox_conf_flat"
  bottom: "conv7_2_mbox_conf_flat"
  bottom: "conv8_2_mbox_conf_flat"
  bottom: "conv9_2_mbox_conf_flat"
  top: "mbox_conf"
  concat_param {
    axis: 1
  }
}
layer {
  name: "mbox_priorbox"
  type: "Concat"
  bottom: "conv4_3_norm_mbox_priorbox"
  bottom: "fc6_mbox_priorbox"
  bottom: "conv6_2_mbox_priorbox"
  bottom: "conv7_2_mbox_priorbox"
  bottom: "conv8_2_mbox_priorbox"
  bottom: "conv9_2_mbox_priorbox"
  top: "mbox_priorbox"
  concat_param {
    axis: 2
  }
}
layer {
  name: "mbox_conf_reshape"
  type: "Reshape"
  bottom: "mbox_conf"
  top: "mbox_conf_reshape"
  reshape_param {
    shape {
      dim: 0
      dim: -1
      dim: 23
    }
  }
}
layer {
  name: "mbox_conf_softmax"
  type: "Softmax"
  bottom: "mbox_conf_reshape"
  top: "mbox_conf_softmax"
  softmax_param {
    axis: 2
  }
}
layer {
  name: "mbox_conf_flatten"
  type: "Flatten"
  bottom: "mbox_conf_softmax"
  top: "mbox_conf_flatten"
  flatten_param {
    axis: 1
  }
}
layer {
  name: "detection_out"
  type: "DetectionOutput"
  bottom: "mbox_loc"
  bottom: "mbox_conf_flatten"
  bottom: "mbox_priorbox"
  top: "detection_out"
  include {
    phase: TEST
  }
  detection_output_param {
    num_classes: 23
    share_location: true
    background_label_id: 0
    nms_param {
      nms_threshold: 0.45
      top_k: 400
    }
    save_output_param {
      output_directory: "./data/results/YUUAV/SSD_300x300/Main"
      output_name_prefix: "comp4_det_test_"
      label_map_file: "data/labelmap_yuuav.prototxt"
      name_size_file: "data/test_name_size.txt"
      num_test_image: 5000
    }
    code_type: CENTER_SIZE
    keep_top_k: 200
    confidence_threshold: 0.01
  }
}
layer {
  name: "detection_eval"
  type: "DetectionEvaluate"
  bottom: "detection_out"
  bottom: "label"
  top: "detection_eval"
  include {
    phase: TEST
  }
  detection_evaluate_param {
    num_classes: 23
    background_label_id: 0
    overlap_threshold: 0.5
    evaluate_difficult_gt: false
    name_size_file: "data/test_name_size.txt"
  }
}
I0813 16:40:59.076483  1670 layer_factory.hpp:77] Creating layer data
I0813 16:40:59.076596  1670 net.cpp:100] Creating Layer data
I0813 16:40:59.076612  1670 net.cpp:408] data -> data
I0813 16:40:59.076619  1670 net.cpp:408] data -> label
I0813 16:40:59.078198  1702 db_lmdb.cpp:35] Opened lmdb data/yuuav/yuuav_test_lmdb
I0813 16:40:59.081374  1670 annotated_data_layer.cpp:62] output data size: 8,3,300,300
I0813 16:40:59.089434  1670 net.cpp:150] Setting up data
I0813 16:40:59.089452  1670 net.cpp:157] Top shape: 8 3 300 300 (2160000)
I0813 16:40:59.089457  1670 net.cpp:157] Top shape: 1 1 1 8 (8)
I0813 16:40:59.089458  1670 net.cpp:165] Memory required for data: 8640032
I0813 16:40:59.089462  1670 layer_factory.hpp:77] Creating layer data_data_0_split
I0813 16:40:59.089471  1670 net.cpp:100] Creating Layer data_data_0_split
I0813 16:40:59.089474  1670 net.cpp:434] data_data_0_split <- data
I0813 16:40:59.089479  1670 net.cpp:408] data_data_0_split -> data_data_0_split_0
I0813 16:40:59.089489  1670 net.cpp:408] data_data_0_split -> data_data_0_split_1
I0813 16:40:59.089498  1670 net.cpp:408] data_data_0_split -> data_data_0_split_2
I0813 16:40:59.089504  1670 net.cpp:408] data_data_0_split -> data_data_0_split_3
I0813 16:40:59.089509  1670 net.cpp:408] data_data_0_split -> data_data_0_split_4
I0813 16:40:59.089516  1670 net.cpp:408] data_data_0_split -> data_data_0_split_5
I0813 16:40:59.089524  1670 net.cpp:408] data_data_0_split -> data_data_0_split_6
I0813 16:40:59.089628  1670 net.cpp:150] Setting up data_data_0_split
I0813 16:40:59.089634  1670 net.cpp:157] Top shape: 8 3 300 300 (2160000)
I0813 16:40:59.089637  1670 net.cpp:157] Top shape: 8 3 300 300 (2160000)
I0813 16:40:59.089640  1670 net.cpp:157] Top shape: 8 3 300 300 (2160000)
I0813 16:40:59.089643  1670 net.cpp:157] Top shape: 8 3 300 300 (2160000)
I0813 16:40:59.089645  1670 net.cpp:157] Top shape: 8 3 300 300 (2160000)
I0813 16:40:59.089648  1670 net.cpp:157] Top shape: 8 3 300 300 (2160000)
I0813 16:40:59.089651  1670 net.cpp:157] Top shape: 8 3 300 300 (2160000)
I0813 16:40:59.089653  1670 net.cpp:165] Memory required for data: 69120032
I0813 16:40:59.089655  1670 layer_factory.hpp:77] Creating layer conv1_1
I0813 16:40:59.089665  1670 net.cpp:100] Creating Layer conv1_1
I0813 16:40:59.089669  1670 net.cpp:434] conv1_1 <- data_data_0_split_0
I0813 16:40:59.089684  1670 net.cpp:408] conv1_1 -> conv1_1
I0813 16:40:59.091136  1670 net.cpp:150] Setting up conv1_1
I0813 16:40:59.091145  1670 net.cpp:157] Top shape: 8 64 300 300 (46080000)
I0813 16:40:59.091148  1670 net.cpp:165] Memory required for data: 253440032
I0813 16:40:59.091157  1670 layer_factory.hpp:77] Creating layer relu1_1
I0813 16:40:59.091163  1670 net.cpp:100] Creating Layer relu1_1
I0813 16:40:59.091168  1670 net.cpp:434] relu1_1 <- conv1_1
I0813 16:40:59.091173  1670 net.cpp:395] relu1_1 -> conv1_1 (in-place)
I0813 16:40:59.091589  1670 net.cpp:150] Setting up relu1_1
I0813 16:40:59.091598  1670 net.cpp:157] Top shape: 8 64 300 300 (46080000)
I0813 16:40:59.091599  1670 net.cpp:165] Memory required for data: 437760032
I0813 16:40:59.091603  1670 layer_factory.hpp:77] Creating layer conv1_2
I0813 16:40:59.091614  1670 net.cpp:100] Creating Layer conv1_2
I0813 16:40:59.091616  1670 net.cpp:434] conv1_2 <- conv1_1
I0813 16:40:59.091621  1670 net.cpp:408] conv1_2 -> conv1_2
I0813 16:40:59.093628  1670 net.cpp:150] Setting up conv1_2
I0813 16:40:59.093637  1670 net.cpp:157] Top shape: 8 64 300 300 (46080000)
I0813 16:40:59.093639  1670 net.cpp:165] Memory required for data: 622080032
I0813 16:40:59.093646  1670 layer_factory.hpp:77] Creating layer relu1_2
I0813 16:40:59.093649  1670 net.cpp:100] Creating Layer relu1_2
I0813 16:40:59.093652  1670 net.cpp:434] relu1_2 <- conv1_2
I0813 16:40:59.093655  1670 net.cpp:395] relu1_2 -> conv1_2 (in-place)
I0813 16:40:59.093932  1670 net.cpp:150] Setting up relu1_2
I0813 16:40:59.093940  1670 net.cpp:157] Top shape: 8 64 300 300 (46080000)
I0813 16:40:59.093941  1670 net.cpp:165] Memory required for data: 806400032
I0813 16:40:59.093943  1670 layer_factory.hpp:77] Creating layer pool1
I0813 16:40:59.093947  1670 net.cpp:100] Creating Layer pool1
I0813 16:40:59.093950  1670 net.cpp:434] pool1 <- conv1_2
I0813 16:40:59.093953  1670 net.cpp:408] pool1 -> pool1
I0813 16:40:59.093989  1670 net.cpp:150] Setting up pool1
I0813 16:40:59.093994  1670 net.cpp:157] Top shape: 8 64 150 150 (11520000)
I0813 16:40:59.093997  1670 net.cpp:165] Memory required for data: 852480032
I0813 16:40:59.093999  1670 layer_factory.hpp:77] Creating layer conv2_1
I0813 16:40:59.094005  1670 net.cpp:100] Creating Layer conv2_1
I0813 16:40:59.094007  1670 net.cpp:434] conv2_1 <- pool1
I0813 16:40:59.094012  1670 net.cpp:408] conv2_1 -> conv2_1
I0813 16:40:59.095542  1670 net.cpp:150] Setting up conv2_1
I0813 16:40:59.095551  1670 net.cpp:157] Top shape: 8 128 150 150 (23040000)
I0813 16:40:59.095553  1670 net.cpp:165] Memory required for data: 944640032
I0813 16:40:59.095559  1670 layer_factory.hpp:77] Creating layer relu2_1
I0813 16:40:59.095567  1670 net.cpp:100] Creating Layer relu2_1
I0813 16:40:59.095571  1670 net.cpp:434] relu2_1 <- conv2_1
I0813 16:40:59.095577  1670 net.cpp:395] relu2_1 -> conv2_1 (in-place)
I0813 16:40:59.095855  1670 net.cpp:150] Setting up relu2_1
I0813 16:40:59.095862  1670 net.cpp:157] Top shape: 8 128 150 150 (23040000)
I0813 16:40:59.095865  1670 net.cpp:165] Memory required for data: 1036800032
I0813 16:40:59.095867  1670 layer_factory.hpp:77] Creating layer conv2_2
I0813 16:40:59.095877  1670 net.cpp:100] Creating Layer conv2_2
I0813 16:40:59.095881  1670 net.cpp:434] conv2_2 <- conv2_1
I0813 16:40:59.095885  1670 net.cpp:408] conv2_2 -> conv2_2
I0813 16:40:59.097663  1670 net.cpp:150] Setting up conv2_2
I0813 16:40:59.097673  1670 net.cpp:157] Top shape: 8 128 150 150 (23040000)
I0813 16:40:59.097676  1670 net.cpp:165] Memory required for data: 1128960032
I0813 16:40:59.097679  1670 layer_factory.hpp:77] Creating layer relu2_2
I0813 16:40:59.097683  1670 net.cpp:100] Creating Layer relu2_2
I0813 16:40:59.097687  1670 net.cpp:434] relu2_2 <- conv2_2
I0813 16:40:59.097689  1670 net.cpp:395] relu2_2 -> conv2_2 (in-place)
I0813 16:40:59.098093  1670 net.cpp:150] Setting up relu2_2
I0813 16:40:59.098101  1670 net.cpp:157] Top shape: 8 128 150 150 (23040000)
I0813 16:40:59.098104  1670 net.cpp:165] Memory required for data: 1221120032
I0813 16:40:59.098112  1670 layer_factory.hpp:77] Creating layer pool2
I0813 16:40:59.098119  1670 net.cpp:100] Creating Layer pool2
I0813 16:40:59.098120  1670 net.cpp:434] pool2 <- conv2_2
I0813 16:40:59.098124  1670 net.cpp:408] pool2 -> pool2
I0813 16:40:59.098162  1670 net.cpp:150] Setting up pool2
I0813 16:40:59.098168  1670 net.cpp:157] Top shape: 8 128 75 75 (5760000)
I0813 16:40:59.098170  1670 net.cpp:165] Memory required for data: 1244160032
I0813 16:40:59.098172  1670 layer_factory.hpp:77] Creating layer conv3_1
I0813 16:40:59.098177  1670 net.cpp:100] Creating Layer conv3_1
I0813 16:40:59.098179  1670 net.cpp:434] conv3_1 <- pool2
I0813 16:40:59.098184  1670 net.cpp:408] conv3_1 -> conv3_1
I0813 16:40:59.100894  1670 net.cpp:150] Setting up conv3_1
I0813 16:40:59.100906  1670 net.cpp:157] Top shape: 8 256 75 75 (11520000)
I0813 16:40:59.100908  1670 net.cpp:165] Memory required for data: 1290240032
I0813 16:40:59.100916  1670 layer_factory.hpp:77] Creating layer relu3_1
I0813 16:40:59.100922  1670 net.cpp:100] Creating Layer relu3_1
I0813 16:40:59.100924  1670 net.cpp:434] relu3_1 <- conv3_1
I0813 16:40:59.100927  1670 net.cpp:395] relu3_1 -> conv3_1 (in-place)
I0813 16:40:59.101212  1670 net.cpp:150] Setting up relu3_1
I0813 16:40:59.101220  1670 net.cpp:157] Top shape: 8 256 75 75 (11520000)
I0813 16:40:59.101222  1670 net.cpp:165] Memory required for data: 1336320032
I0813 16:40:59.101224  1670 layer_factory.hpp:77] Creating layer conv3_2
I0813 16:40:59.101231  1670 net.cpp:100] Creating Layer conv3_2
I0813 16:40:59.101234  1670 net.cpp:434] conv3_2 <- conv3_1
I0813 16:40:59.101238  1670 net.cpp:408] conv3_2 -> conv3_2
I0813 16:40:59.104972  1670 net.cpp:150] Setting up conv3_2
I0813 16:40:59.104985  1670 net.cpp:157] Top shape: 8 256 75 75 (11520000)
I0813 16:40:59.104987  1670 net.cpp:165] Memory required for data: 1382400032
I0813 16:40:59.104993  1670 layer_factory.hpp:77] Creating layer relu3_2
I0813 16:40:59.104998  1670 net.cpp:100] Creating Layer relu3_2
I0813 16:40:59.105000  1670 net.cpp:434] relu3_2 <- conv3_2
I0813 16:40:59.105005  1670 net.cpp:395] relu3_2 -> conv3_2 (in-place)
I0813 16:40:59.105413  1670 net.cpp:150] Setting up relu3_2
I0813 16:40:59.105422  1670 net.cpp:157] Top shape: 8 256 75 75 (11520000)
I0813 16:40:59.105423  1670 net.cpp:165] Memory required for data: 1428480032
I0813 16:40:59.105427  1670 layer_factory.hpp:77] Creating layer conv3_3
I0813 16:40:59.105435  1670 net.cpp:100] Creating Layer conv3_3
I0813 16:40:59.105437  1670 net.cpp:434] conv3_3 <- conv3_2
I0813 16:40:59.105442  1670 net.cpp:408] conv3_3 -> conv3_3
I0813 16:40:59.109174  1670 net.cpp:150] Setting up conv3_3
I0813 16:40:59.109186  1670 net.cpp:157] Top shape: 8 256 75 75 (11520000)
I0813 16:40:59.109189  1670 net.cpp:165] Memory required for data: 1474560032
I0813 16:40:59.109195  1670 layer_factory.hpp:77] Creating layer relu3_3
I0813 16:40:59.109200  1670 net.cpp:100] Creating Layer relu3_3
I0813 16:40:59.109203  1670 net.cpp:434] relu3_3 <- conv3_3
I0813 16:40:59.109206  1670 net.cpp:395] relu3_3 -> conv3_3 (in-place)
I0813 16:40:59.109500  1670 net.cpp:150] Setting up relu3_3
I0813 16:40:59.109508  1670 net.cpp:157] Top shape: 8 256 75 75 (11520000)
I0813 16:40:59.109510  1670 net.cpp:165] Memory required for data: 1520640032
I0813 16:40:59.109513  1670 layer_factory.hpp:77] Creating layer pool3
I0813 16:40:59.109516  1670 net.cpp:100] Creating Layer pool3
I0813 16:40:59.109519  1670 net.cpp:434] pool3 <- conv3_3
I0813 16:40:59.109522  1670 net.cpp:408] pool3 -> pool3
I0813 16:40:59.109562  1670 net.cpp:150] Setting up pool3
I0813 16:40:59.109567  1670 net.cpp:157] Top shape: 8 256 38 38 (2957312)
I0813 16:40:59.109570  1670 net.cpp:165] Memory required for data: 1532469280
I0813 16:40:59.109571  1670 layer_factory.hpp:77] Creating layer conv4_1
I0813 16:40:59.109577  1670 net.cpp:100] Creating Layer conv4_1
I0813 16:40:59.109580  1670 net.cpp:434] conv4_1 <- pool3
I0813 16:40:59.109585  1670 net.cpp:408] conv4_1 -> conv4_1
I0813 16:40:59.115821  1670 net.cpp:150] Setting up conv4_1
I0813 16:40:59.115844  1670 net.cpp:157] Top shape: 8 512 38 38 (5914624)
I0813 16:40:59.115847  1670 net.cpp:165] Memory required for data: 1556127776
I0813 16:40:59.115854  1670 layer_factory.hpp:77] Creating layer relu4_1
I0813 16:40:59.115860  1670 net.cpp:100] Creating Layer relu4_1
I0813 16:40:59.115864  1670 net.cpp:434] relu4_1 <- conv4_1
I0813 16:40:59.115869  1670 net.cpp:395] relu4_1 -> conv4_1 (in-place)
I0813 16:40:59.116160  1670 net.cpp:150] Setting up relu4_1
I0813 16:40:59.116168  1670 net.cpp:157] Top shape: 8 512 38 38 (5914624)
I0813 16:40:59.116169  1670 net.cpp:165] Memory required for data: 1579786272
I0813 16:40:59.116173  1670 layer_factory.hpp:77] Creating layer conv4_2
I0813 16:40:59.116183  1670 net.cpp:100] Creating Layer conv4_2
I0813 16:40:59.116185  1670 net.cpp:434] conv4_2 <- conv4_1
I0813 16:40:59.116190  1670 net.cpp:408] conv4_2 -> conv4_2
I0813 16:40:59.126735  1670 net.cpp:150] Setting up conv4_2
I0813 16:40:59.126752  1670 net.cpp:157] Top shape: 8 512 38 38 (5914624)
I0813 16:40:59.126754  1670 net.cpp:165] Memory required for data: 1603444768
I0813 16:40:59.126770  1670 layer_factory.hpp:77] Creating layer relu4_2
I0813 16:40:59.126776  1670 net.cpp:100] Creating Layer relu4_2
I0813 16:40:59.126780  1670 net.cpp:434] relu4_2 <- conv4_2
I0813 16:40:59.126783  1670 net.cpp:395] relu4_2 -> conv4_2 (in-place)
I0813 16:40:59.127213  1670 net.cpp:150] Setting up relu4_2
I0813 16:40:59.127220  1670 net.cpp:157] Top shape: 8 512 38 38 (5914624)
I0813 16:40:59.127223  1670 net.cpp:165] Memory required for data: 1627103264
I0813 16:40:59.127225  1670 layer_factory.hpp:77] Creating layer conv4_3
I0813 16:40:59.127233  1670 net.cpp:100] Creating Layer conv4_3
I0813 16:40:59.127235  1670 net.cpp:434] conv4_3 <- conv4_2
I0813 16:40:59.127239  1670 net.cpp:408] conv4_3 -> conv4_3
I0813 16:40:59.137796  1670 net.cpp:150] Setting up conv4_3
I0813 16:40:59.137811  1670 net.cpp:157] Top shape: 8 512 38 38 (5914624)
I0813 16:40:59.137814  1670 net.cpp:165] Memory required for data: 1650761760
I0813 16:40:59.137821  1670 layer_factory.hpp:77] Creating layer relu4_3
I0813 16:40:59.137826  1670 net.cpp:100] Creating Layer relu4_3
I0813 16:40:59.137828  1670 net.cpp:434] relu4_3 <- conv4_3
I0813 16:40:59.137832  1670 net.cpp:395] relu4_3 -> conv4_3 (in-place)
I0813 16:40:59.138128  1670 net.cpp:150] Setting up relu4_3
I0813 16:40:59.138134  1670 net.cpp:157] Top shape: 8 512 38 38 (5914624)
I0813 16:40:59.138136  1670 net.cpp:165] Memory required for data: 1674420256
I0813 16:40:59.138139  1670 layer_factory.hpp:77] Creating layer conv4_3_relu4_3_0_split
I0813 16:40:59.138142  1670 net.cpp:100] Creating Layer conv4_3_relu4_3_0_split
I0813 16:40:59.138144  1670 net.cpp:434] conv4_3_relu4_3_0_split <- conv4_3
I0813 16:40:59.138149  1670 net.cpp:408] conv4_3_relu4_3_0_split -> conv4_3_relu4_3_0_split_0
I0813 16:40:59.138152  1670 net.cpp:408] conv4_3_relu4_3_0_split -> conv4_3_relu4_3_0_split_1
I0813 16:40:59.138190  1670 net.cpp:150] Setting up conv4_3_relu4_3_0_split
I0813 16:40:59.138193  1670 net.cpp:157] Top shape: 8 512 38 38 (5914624)
I0813 16:40:59.138196  1670 net.cpp:157] Top shape: 8 512 38 38 (5914624)
I0813 16:40:59.138197  1670 net.cpp:165] Memory required for data: 1721737248
I0813 16:40:59.138200  1670 layer_factory.hpp:77] Creating layer pool4
I0813 16:40:59.138203  1670 net.cpp:100] Creating Layer pool4
I0813 16:40:59.138206  1670 net.cpp:434] pool4 <- conv4_3_relu4_3_0_split_0
I0813 16:40:59.138209  1670 net.cpp:408] pool4 -> pool4
I0813 16:40:59.138240  1670 net.cpp:150] Setting up pool4
I0813 16:40:59.138245  1670 net.cpp:157] Top shape: 8 512 19 19 (1478656)
I0813 16:40:59.138247  1670 net.cpp:165] Memory required for data: 1727651872
I0813 16:40:59.138249  1670 layer_factory.hpp:77] Creating layer conv5_1
I0813 16:40:59.138257  1670 net.cpp:100] Creating Layer conv5_1
I0813 16:40:59.138258  1670 net.cpp:434] conv5_1 <- pool4
I0813 16:40:59.138262  1670 net.cpp:408] conv5_1 -> conv5_1
I0813 16:40:59.149111  1670 net.cpp:150] Setting up conv5_1
I0813 16:40:59.149127  1670 net.cpp:157] Top shape: 8 512 19 19 (1478656)
I0813 16:40:59.149137  1670 net.cpp:165] Memory required for data: 1733566496
I0813 16:40:59.149143  1670 layer_factory.hpp:77] Creating layer relu5_1
I0813 16:40:59.149149  1670 net.cpp:100] Creating Layer relu5_1
I0813 16:40:59.149152  1670 net.cpp:434] relu5_1 <- conv5_1
I0813 16:40:59.149157  1670 net.cpp:395] relu5_1 -> conv5_1 (in-place)
I0813 16:40:59.149580  1670 net.cpp:150] Setting up relu5_1
I0813 16:40:59.149590  1670 net.cpp:157] Top shape: 8 512 19 19 (1478656)
I0813 16:40:59.149591  1670 net.cpp:165] Memory required for data: 1739481120
I0813 16:40:59.149593  1670 layer_factory.hpp:77] Creating layer conv5_2
I0813 16:40:59.149601  1670 net.cpp:100] Creating Layer conv5_2
I0813 16:40:59.149603  1670 net.cpp:434] conv5_2 <- conv5_1
I0813 16:40:59.149607  1670 net.cpp:408] conv5_2 -> conv5_2
I0813 16:40:59.160221  1670 net.cpp:150] Setting up conv5_2
I0813 16:40:59.160238  1670 net.cpp:157] Top shape: 8 512 19 19 (1478656)
I0813 16:40:59.160239  1670 net.cpp:165] Memory required for data: 1745395744
I0813 16:40:59.160246  1670 layer_factory.hpp:77] Creating layer relu5_2
I0813 16:40:59.160251  1670 net.cpp:100] Creating Layer relu5_2
I0813 16:40:59.160254  1670 net.cpp:434] relu5_2 <- conv5_2
I0813 16:40:59.160259  1670 net.cpp:395] relu5_2 -> conv5_2 (in-place)
I0813 16:40:59.160545  1670 net.cpp:150] Setting up relu5_2
I0813 16:40:59.160552  1670 net.cpp:157] Top shape: 8 512 19 19 (1478656)
I0813 16:40:59.160554  1670 net.cpp:165] Memory required for data: 1751310368
I0813 16:40:59.160557  1670 layer_factory.hpp:77] Creating layer conv5_3
I0813 16:40:59.160563  1670 net.cpp:100] Creating Layer conv5_3
I0813 16:40:59.160565  1670 net.cpp:434] conv5_3 <- conv5_2
I0813 16:40:59.160569  1670 net.cpp:408] conv5_3 -> conv5_3
I0813 16:40:59.171305  1670 net.cpp:150] Setting up conv5_3
I0813 16:40:59.171322  1670 net.cpp:157] Top shape: 8 512 19 19 (1478656)
I0813 16:40:59.171324  1670 net.cpp:165] Memory required for data: 1757224992
I0813 16:40:59.171331  1670 layer_factory.hpp:77] Creating layer relu5_3
I0813 16:40:59.171340  1670 net.cpp:100] Creating Layer relu5_3
I0813 16:40:59.171344  1670 net.cpp:434] relu5_3 <- conv5_3
I0813 16:40:59.171347  1670 net.cpp:395] relu5_3 -> conv5_3 (in-place)
I0813 16:40:59.171633  1670 net.cpp:150] Setting up relu5_3
I0813 16:40:59.171643  1670 net.cpp:157] Top shape: 8 512 19 19 (1478656)
I0813 16:40:59.171644  1670 net.cpp:165] Memory required for data: 1763139616
I0813 16:40:59.171646  1670 layer_factory.hpp:77] Creating layer pool5
I0813 16:40:59.171651  1670 net.cpp:100] Creating Layer pool5
I0813 16:40:59.171653  1670 net.cpp:434] pool5 <- conv5_3
I0813 16:40:59.171658  1670 net.cpp:408] pool5 -> pool5
I0813 16:40:59.171695  1670 net.cpp:150] Setting up pool5
I0813 16:40:59.171700  1670 net.cpp:157] Top shape: 8 512 19 19 (1478656)
I0813 16:40:59.171701  1670 net.cpp:165] Memory required for data: 1769054240
I0813 16:40:59.171703  1670 layer_factory.hpp:77] Creating layer fc6
I0813 16:40:59.171710  1670 net.cpp:100] Creating Layer fc6
I0813 16:40:59.171715  1670 net.cpp:434] fc6 <- pool5
I0813 16:40:59.171718  1670 net.cpp:408] fc6 -> fc6
I0813 16:40:59.190345  1670 net.cpp:150] Setting up fc6
I0813 16:40:59.190361  1670 net.cpp:157] Top shape: 8 1024 19 19 (2957312)
I0813 16:40:59.190363  1670 net.cpp:165] Memory required for data: 1780883488
I0813 16:40:59.190371  1670 layer_factory.hpp:77] Creating layer relu6
I0813 16:40:59.190376  1670 net.cpp:100] Creating Layer relu6
I0813 16:40:59.190380  1670 net.cpp:434] relu6 <- fc6
I0813 16:40:59.190384  1670 net.cpp:395] relu6 -> fc6 (in-place)
I0813 16:40:59.190734  1670 net.cpp:150] Setting up relu6
I0813 16:40:59.190742  1670 net.cpp:157] Top shape: 8 1024 19 19 (2957312)
I0813 16:40:59.190743  1670 net.cpp:165] Memory required for data: 1792712736
I0813 16:40:59.190745  1670 layer_factory.hpp:77] Creating layer fc6_relu6_0_split
I0813 16:40:59.190749  1670 net.cpp:100] Creating Layer fc6_relu6_0_split
I0813 16:40:59.190752  1670 net.cpp:434] fc6_relu6_0_split <- fc6
I0813 16:40:59.190755  1670 net.cpp:408] fc6_relu6_0_split -> fc6_relu6_0_split_0
I0813 16:40:59.190771  1670 net.cpp:408] fc6_relu6_0_split -> fc6_relu6_0_split_1
I0813 16:40:59.190775  1670 net.cpp:408] fc6_relu6_0_split -> fc6_relu6_0_split_2
I0813 16:40:59.190784  1670 net.cpp:408] fc6_relu6_0_split -> fc6_relu6_0_split_3
I0813 16:40:59.190845  1670 net.cpp:150] Setting up fc6_relu6_0_split
I0813 16:40:59.190850  1670 net.cpp:157] Top shape: 8 1024 19 19 (2957312)
I0813 16:40:59.190853  1670 net.cpp:157] Top shape: 8 1024 19 19 (2957312)
I0813 16:40:59.190856  1670 net.cpp:157] Top shape: 8 1024 19 19 (2957312)
I0813 16:40:59.190858  1670 net.cpp:157] Top shape: 8 1024 19 19 (2957312)
I0813 16:40:59.190860  1670 net.cpp:165] Memory required for data: 1840029728
I0813 16:40:59.190862  1670 layer_factory.hpp:77] Creating layer fc7
I0813 16:40:59.190870  1670 net.cpp:100] Creating Layer fc7
I0813 16:40:59.190872  1670 net.cpp:434] fc7 <- fc6_relu6_0_split_0
I0813 16:40:59.190877  1670 net.cpp:408] fc7 -> fc7
I0813 16:40:59.196444  1670 net.cpp:150] Setting up fc7
I0813 16:40:59.196460  1670 net.cpp:157] Top shape: 8 1024 19 19 (2957312)
I0813 16:40:59.196461  1670 net.cpp:165] Memory required for data: 1851858976
I0813 16:40:59.196467  1670 layer_factory.hpp:77] Creating layer relu7
I0813 16:40:59.196472  1670 net.cpp:100] Creating Layer relu7
I0813 16:40:59.196475  1670 net.cpp:434] relu7 <- fc7
I0813 16:40:59.196480  1670 net.cpp:395] relu7 -> fc7 (in-place)
I0813 16:40:59.196774  1670 net.cpp:150] Setting up relu7
I0813 16:40:59.196780  1670 net.cpp:157] Top shape: 8 1024 19 19 (2957312)
I0813 16:40:59.196784  1670 net.cpp:165] Memory required for data: 1863688224
I0813 16:40:59.196785  1670 layer_factory.hpp:77] Creating layer conv6_1
I0813 16:40:59.196794  1670 net.cpp:100] Creating Layer conv6_1
I0813 16:40:59.196795  1670 net.cpp:434] conv6_1 <- fc7
I0813 16:40:59.196800  1670 net.cpp:408] conv6_1 -> conv6_1
I0813 16:40:59.199473  1670 net.cpp:150] Setting up conv6_1
I0813 16:40:59.199482  1670 net.cpp:157] Top shape: 8 256 19 19 (739328)
I0813 16:40:59.199484  1670 net.cpp:165] Memory required for data: 1866645536
I0813 16:40:59.199491  1670 layer_factory.hpp:77] Creating layer conv6_1_relu
I0813 16:40:59.199496  1670 net.cpp:100] Creating Layer conv6_1_relu
I0813 16:40:59.199501  1670 net.cpp:434] conv6_1_relu <- conv6_1
I0813 16:40:59.199506  1670 net.cpp:395] conv6_1_relu -> conv6_1 (in-place)
I0813 16:40:59.199924  1670 net.cpp:150] Setting up conv6_1_relu
I0813 16:40:59.199932  1670 net.cpp:157] Top shape: 8 256 19 19 (739328)
I0813 16:40:59.199935  1670 net.cpp:165] Memory required for data: 1869602848
I0813 16:40:59.199939  1670 layer_factory.hpp:77] Creating layer conv6_2
I0813 16:40:59.199949  1670 net.cpp:100] Creating Layer conv6_2
I0813 16:40:59.199951  1670 net.cpp:434] conv6_2 <- conv6_1
I0813 16:40:59.199957  1670 net.cpp:408] conv6_2 -> conv6_2
I0813 16:40:59.206034  1670 net.cpp:150] Setting up conv6_2
I0813 16:40:59.206051  1670 net.cpp:157] Top shape: 8 512 10 10 (409600)
I0813 16:40:59.206053  1670 net.cpp:165] Memory required for data: 1871241248
I0813 16:40:59.206066  1670 layer_factory.hpp:77] Creating layer conv6_2_relu
I0813 16:40:59.206076  1670 net.cpp:100] Creating Layer conv6_2_relu
I0813 16:40:59.206081  1670 net.cpp:434] conv6_2_relu <- conv6_2
I0813 16:40:59.206086  1670 net.cpp:395] conv6_2_relu -> conv6_2 (in-place)
I0813 16:40:59.206387  1670 net.cpp:150] Setting up conv6_2_relu
I0813 16:40:59.206394  1670 net.cpp:157] Top shape: 8 512 10 10 (409600)
I0813 16:40:59.206398  1670 net.cpp:165] Memory required for data: 1872879648
I0813 16:40:59.206399  1670 layer_factory.hpp:77] Creating layer conv6_2_conv6_2_relu_0_split
I0813 16:40:59.206406  1670 net.cpp:100] Creating Layer conv6_2_conv6_2_relu_0_split
I0813 16:40:59.206409  1670 net.cpp:434] conv6_2_conv6_2_relu_0_split <- conv6_2
I0813 16:40:59.206414  1670 net.cpp:408] conv6_2_conv6_2_relu_0_split -> conv6_2_conv6_2_relu_0_split_0
I0813 16:40:59.206421  1670 net.cpp:408] conv6_2_conv6_2_relu_0_split -> conv6_2_conv6_2_relu_0_split_1
I0813 16:40:59.206436  1670 net.cpp:408] conv6_2_conv6_2_relu_0_split -> conv6_2_conv6_2_relu_0_split_2
I0813 16:40:59.206442  1670 net.cpp:408] conv6_2_conv6_2_relu_0_split -> conv6_2_conv6_2_relu_0_split_3
I0813 16:40:59.206509  1670 net.cpp:150] Setting up conv6_2_conv6_2_relu_0_split
I0813 16:40:59.206514  1670 net.cpp:157] Top shape: 8 512 10 10 (409600)
I0813 16:40:59.206518  1670 net.cpp:157] Top shape: 8 512 10 10 (409600)
I0813 16:40:59.206521  1670 net.cpp:157] Top shape: 8 512 10 10 (409600)
I0813 16:40:59.206526  1670 net.cpp:157] Top shape: 8 512 10 10 (409600)
I0813 16:40:59.206528  1670 net.cpp:165] Memory required for data: 1879433248
I0813 16:40:59.206532  1670 layer_factory.hpp:77] Creating layer conv7_1
I0813 16:40:59.206539  1670 net.cpp:100] Creating Layer conv7_1
I0813 16:40:59.206542  1670 net.cpp:434] conv7_1 <- conv6_2_conv6_2_relu_0_split_0
I0813 16:40:59.206547  1670 net.cpp:408] conv7_1 -> conv7_1
I0813 16:40:59.208016  1670 net.cpp:150] Setting up conv7_1
I0813 16:40:59.208025  1670 net.cpp:157] Top shape: 8 128 10 10 (102400)
I0813 16:40:59.208027  1670 net.cpp:165] Memory required for data: 1879842848
I0813 16:40:59.208032  1670 layer_factory.hpp:77] Creating layer conv7_1_relu
I0813 16:40:59.208035  1670 net.cpp:100] Creating Layer conv7_1_relu
I0813 16:40:59.208039  1670 net.cpp:434] conv7_1_relu <- conv7_1
I0813 16:40:59.208042  1670 net.cpp:395] conv7_1_relu -> conv7_1 (in-place)
I0813 16:40:59.208459  1670 net.cpp:150] Setting up conv7_1_relu
I0813 16:40:59.208467  1670 net.cpp:157] Top shape: 8 128 10 10 (102400)
I0813 16:40:59.208468  1670 net.cpp:165] Memory required for data: 1880252448
I0813 16:40:59.208472  1670 layer_factory.hpp:77] Creating layer conv7_2
I0813 16:40:59.208477  1670 net.cpp:100] Creating Layer conv7_2
I0813 16:40:59.208479  1670 net.cpp:434] conv7_2 <- conv7_1
I0813 16:40:59.208483  1670 net.cpp:408] conv7_2 -> conv7_2
I0813 16:40:59.211113  1670 net.cpp:150] Setting up conv7_2
I0813 16:40:59.211123  1670 net.cpp:157] Top shape: 8 256 5 5 (51200)
I0813 16:40:59.211127  1670 net.cpp:165] Memory required for data: 1880457248
I0813 16:40:59.211132  1670 layer_factory.hpp:77] Creating layer conv7_2_relu
I0813 16:40:59.211138  1670 net.cpp:100] Creating Layer conv7_2_relu
I0813 16:40:59.211140  1670 net.cpp:434] conv7_2_relu <- conv7_2
I0813 16:40:59.211145  1670 net.cpp:395] conv7_2_relu -> conv7_2 (in-place)
I0813 16:40:59.211441  1670 net.cpp:150] Setting up conv7_2_relu
I0813 16:40:59.211447  1670 net.cpp:157] Top shape: 8 256 5 5 (51200)
I0813 16:40:59.211450  1670 net.cpp:165] Memory required for data: 1880662048
I0813 16:40:59.211453  1670 layer_factory.hpp:77] Creating layer conv7_2_conv7_2_relu_0_split
I0813 16:40:59.211459  1670 net.cpp:100] Creating Layer conv7_2_conv7_2_relu_0_split
I0813 16:40:59.211465  1670 net.cpp:434] conv7_2_conv7_2_relu_0_split <- conv7_2
I0813 16:40:59.211473  1670 net.cpp:408] conv7_2_conv7_2_relu_0_split -> conv7_2_conv7_2_relu_0_split_0
I0813 16:40:59.211478  1670 net.cpp:408] conv7_2_conv7_2_relu_0_split -> conv7_2_conv7_2_relu_0_split_1
I0813 16:40:59.211485  1670 net.cpp:408] conv7_2_conv7_2_relu_0_split -> conv7_2_conv7_2_relu_0_split_2
I0813 16:40:59.211490  1670 net.cpp:408] conv7_2_conv7_2_relu_0_split -> conv7_2_conv7_2_relu_0_split_3
I0813 16:40:59.211555  1670 net.cpp:150] Setting up conv7_2_conv7_2_relu_0_split
I0813 16:40:59.211560  1670 net.cpp:157] Top shape: 8 256 5 5 (51200)
I0813 16:40:59.211562  1670 net.cpp:157] Top shape: 8 256 5 5 (51200)
I0813 16:40:59.211566  1670 net.cpp:157] Top shape: 8 256 5 5 (51200)
I0813 16:40:59.211570  1670 net.cpp:157] Top shape: 8 256 5 5 (51200)
I0813 16:40:59.211572  1670 net.cpp:165] Memory required for data: 1881481248
I0813 16:40:59.211575  1670 layer_factory.hpp:77] Creating layer conv8_1
I0813 16:40:59.211583  1670 net.cpp:100] Creating Layer conv8_1
I0813 16:40:59.211587  1670 net.cpp:434] conv8_1 <- conv7_2_conv7_2_relu_0_split_0
I0813 16:40:59.211592  1670 net.cpp:408] conv8_1 -> conv8_1
I0813 16:40:59.213059  1670 net.cpp:150] Setting up conv8_1
I0813 16:40:59.213070  1670 net.cpp:157] Top shape: 8 128 5 5 (25600)
I0813 16:40:59.213081  1670 net.cpp:165] Memory required for data: 1881583648
I0813 16:40:59.213089  1670 layer_factory.hpp:77] Creating layer conv8_1_relu
I0813 16:40:59.213093  1670 net.cpp:100] Creating Layer conv8_1_relu
I0813 16:40:59.213099  1670 net.cpp:434] conv8_1_relu <- conv8_1
I0813 16:40:59.213104  1670 net.cpp:395] conv8_1_relu -> conv8_1 (in-place)
I0813 16:40:59.213399  1670 net.cpp:150] Setting up conv8_1_relu
I0813 16:40:59.213407  1670 net.cpp:157] Top shape: 8 128 5 5 (25600)
I0813 16:40:59.213412  1670 net.cpp:165] Memory required for data: 1881686048
I0813 16:40:59.213414  1670 layer_factory.hpp:77] Creating layer conv8_2
I0813 16:40:59.213423  1670 net.cpp:100] Creating Layer conv8_2
I0813 16:40:59.213426  1670 net.cpp:434] conv8_2 <- conv8_1
I0813 16:40:59.213433  1670 net.cpp:408] conv8_2 -> conv8_2
I0813 16:40:59.216190  1670 net.cpp:150] Setting up conv8_2
I0813 16:40:59.216200  1670 net.cpp:157] Top shape: 8 256 3 3 (18432)
I0813 16:40:59.216202  1670 net.cpp:165] Memory required for data: 1881759776
I0813 16:40:59.216208  1670 layer_factory.hpp:77] Creating layer conv8_2_relu
I0813 16:40:59.216212  1670 net.cpp:100] Creating Layer conv8_2_relu
I0813 16:40:59.216215  1670 net.cpp:434] conv8_2_relu <- conv8_2
I0813 16:40:59.216218  1670 net.cpp:395] conv8_2_relu -> conv8_2 (in-place)
I0813 16:40:59.216634  1670 net.cpp:150] Setting up conv8_2_relu
I0813 16:40:59.216642  1670 net.cpp:157] Top shape: 8 256 3 3 (18432)
I0813 16:40:59.216645  1670 net.cpp:165] Memory required for data: 1881833504
I0813 16:40:59.216646  1670 layer_factory.hpp:77] Creating layer conv8_2_conv8_2_relu_0_split
I0813 16:40:59.216650  1670 net.cpp:100] Creating Layer conv8_2_conv8_2_relu_0_split
I0813 16:40:59.216652  1670 net.cpp:434] conv8_2_conv8_2_relu_0_split <- conv8_2
I0813 16:40:59.216656  1670 net.cpp:408] conv8_2_conv8_2_relu_0_split -> conv8_2_conv8_2_relu_0_split_0
I0813 16:40:59.216661  1670 net.cpp:408] conv8_2_conv8_2_relu_0_split -> conv8_2_conv8_2_relu_0_split_1
I0813 16:40:59.216665  1670 net.cpp:408] conv8_2_conv8_2_relu_0_split -> conv8_2_conv8_2_relu_0_split_2
I0813 16:40:59.216670  1670 net.cpp:408] conv8_2_conv8_2_relu_0_split -> conv8_2_conv8_2_relu_0_split_3
I0813 16:40:59.216732  1670 net.cpp:150] Setting up conv8_2_conv8_2_relu_0_split
I0813 16:40:59.216737  1670 net.cpp:157] Top shape: 8 256 3 3 (18432)
I0813 16:40:59.216739  1670 net.cpp:157] Top shape: 8 256 3 3 (18432)
I0813 16:40:59.216742  1670 net.cpp:157] Top shape: 8 256 3 3 (18432)
I0813 16:40:59.216744  1670 net.cpp:157] Top shape: 8 256 3 3 (18432)
I0813 16:40:59.216745  1670 net.cpp:165] Memory required for data: 1882128416
I0813 16:40:59.216748  1670 layer_factory.hpp:77] Creating layer conv9_1
I0813 16:40:59.216753  1670 net.cpp:100] Creating Layer conv9_1
I0813 16:40:59.216756  1670 net.cpp:434] conv9_1 <- conv8_2_conv8_2_relu_0_split_0
I0813 16:40:59.216760  1670 net.cpp:408] conv9_1 -> conv9_1
I0813 16:40:59.218528  1670 net.cpp:150] Setting up conv9_1
I0813 16:40:59.218536  1670 net.cpp:157] Top shape: 8 128 3 3 (9216)
I0813 16:40:59.218538  1670 net.cpp:165] Memory required for data: 1882165280
I0813 16:40:59.218544  1670 layer_factory.hpp:77] Creating layer conv9_1_relu
I0813 16:40:59.218547  1670 net.cpp:100] Creating Layer conv9_1_relu
I0813 16:40:59.218549  1670 net.cpp:434] conv9_1_relu <- conv9_1
I0813 16:40:59.218554  1670 net.cpp:395] conv9_1_relu -> conv9_1 (in-place)
I0813 16:40:59.218853  1670 net.cpp:150] Setting up conv9_1_relu
I0813 16:40:59.218860  1670 net.cpp:157] Top shape: 8 128 3 3 (9216)
I0813 16:40:59.218863  1670 net.cpp:165] Memory required for data: 1882202144
I0813 16:40:59.218864  1670 layer_factory.hpp:77] Creating layer conv9_2
I0813 16:40:59.218870  1670 net.cpp:100] Creating Layer conv9_2
I0813 16:40:59.218873  1670 net.cpp:434] conv9_2 <- conv9_1
I0813 16:40:59.218878  1670 net.cpp:408] conv9_2 -> conv9_2
I0813 16:40:59.221599  1670 net.cpp:150] Setting up conv9_2
I0813 16:40:59.221609  1670 net.cpp:157] Top shape: 8 256 1 1 (2048)
I0813 16:40:59.221612  1670 net.cpp:165] Memory required for data: 1882210336
I0813 16:40:59.221624  1670 layer_factory.hpp:77] Creating layer conv9_2_relu
I0813 16:40:59.221628  1670 net.cpp:100] Creating Layer conv9_2_relu
I0813 16:40:59.221630  1670 net.cpp:434] conv9_2_relu <- conv9_2
I0813 16:40:59.221634  1670 net.cpp:395] conv9_2_relu -> conv9_2 (in-place)
I0813 16:40:59.222048  1670 net.cpp:150] Setting up conv9_2_relu
I0813 16:40:59.222056  1670 net.cpp:157] Top shape: 8 256 1 1 (2048)
I0813 16:40:59.222059  1670 net.cpp:165] Memory required for data: 1882218528
I0813 16:40:59.222060  1670 layer_factory.hpp:77] Creating layer conv9_2_conv9_2_relu_0_split
I0813 16:40:59.222065  1670 net.cpp:100] Creating Layer conv9_2_conv9_2_relu_0_split
I0813 16:40:59.222067  1670 net.cpp:434] conv9_2_conv9_2_relu_0_split <- conv9_2
I0813 16:40:59.222070  1670 net.cpp:408] conv9_2_conv9_2_relu_0_split -> conv9_2_conv9_2_relu_0_split_0
I0813 16:40:59.222076  1670 net.cpp:408] conv9_2_conv9_2_relu_0_split -> conv9_2_conv9_2_relu_0_split_1
I0813 16:40:59.222080  1670 net.cpp:408] conv9_2_conv9_2_relu_0_split -> conv9_2_conv9_2_relu_0_split_2
I0813 16:40:59.222131  1670 net.cpp:150] Setting up conv9_2_conv9_2_relu_0_split
I0813 16:40:59.222136  1670 net.cpp:157] Top shape: 8 256 1 1 (2048)
I0813 16:40:59.222138  1670 net.cpp:157] Top shape: 8 256 1 1 (2048)
I0813 16:40:59.222141  1670 net.cpp:157] Top shape: 8 256 1 1 (2048)
I0813 16:40:59.222142  1670 net.cpp:165] Memory required for data: 1882243104
I0813 16:40:59.222144  1670 layer_factory.hpp:77] Creating layer conv4_3_norm
I0813 16:40:59.222148  1670 net.cpp:100] Creating Layer conv4_3_norm
I0813 16:40:59.222151  1670 net.cpp:434] conv4_3_norm <- conv4_3_relu4_3_0_split_1
I0813 16:40:59.222156  1670 net.cpp:408] conv4_3_norm -> conv4_3_norm
I0813 16:40:59.222312  1670 net.cpp:150] Setting up conv4_3_norm
I0813 16:40:59.222318  1670 net.cpp:157] Top shape: 8 512 38 38 (5914624)
I0813 16:40:59.222321  1670 net.cpp:165] Memory required for data: 1905901600
I0813 16:40:59.222324  1670 layer_factory.hpp:77] Creating layer conv4_3_norm_conv4_3_norm_0_split
I0813 16:40:59.222327  1670 net.cpp:100] Creating Layer conv4_3_norm_conv4_3_norm_0_split
I0813 16:40:59.222331  1670 net.cpp:434] conv4_3_norm_conv4_3_norm_0_split <- conv4_3_norm
I0813 16:40:59.222333  1670 net.cpp:408] conv4_3_norm_conv4_3_norm_0_split -> conv4_3_norm_conv4_3_norm_0_split_0
I0813 16:40:59.222337  1670 net.cpp:408] conv4_3_norm_conv4_3_norm_0_split -> conv4_3_norm_conv4_3_norm_0_split_1
I0813 16:40:59.222342  1670 net.cpp:408] conv4_3_norm_conv4_3_norm_0_split -> conv4_3_norm_conv4_3_norm_0_split_2
I0813 16:40:59.222388  1670 net.cpp:150] Setting up conv4_3_norm_conv4_3_norm_0_split
I0813 16:40:59.222393  1670 net.cpp:157] Top shape: 8 512 38 38 (5914624)
I0813 16:40:59.222394  1670 net.cpp:157] Top shape: 8 512 38 38 (5914624)
I0813 16:40:59.222398  1670 net.cpp:157] Top shape: 8 512 38 38 (5914624)
I0813 16:40:59.222399  1670 net.cpp:165] Memory required for data: 1976877088
I0813 16:40:59.222401  1670 layer_factory.hpp:77] Creating layer conv4_3_norm_mbox_loc
I0813 16:40:59.222407  1670 net.cpp:100] Creating Layer conv4_3_norm_mbox_loc
I0813 16:40:59.222409  1670 net.cpp:434] conv4_3_norm_mbox_loc <- conv4_3_norm_conv4_3_norm_0_split_0
I0813 16:40:59.222414  1670 net.cpp:408] conv4_3_norm_mbox_loc -> conv4_3_norm_mbox_loc
I0813 16:40:59.224020  1670 net.cpp:150] Setting up conv4_3_norm_mbox_loc
I0813 16:40:59.224030  1670 net.cpp:157] Top shape: 8 16 38 38 (184832)
I0813 16:40:59.224031  1670 net.cpp:165] Memory required for data: 1977616416
I0813 16:40:59.224038  1670 layer_factory.hpp:77] Creating layer conv4_3_norm_mbox_loc_perm
I0813 16:40:59.224046  1670 net.cpp:100] Creating Layer conv4_3_norm_mbox_loc_perm
I0813 16:40:59.224051  1670 net.cpp:434] conv4_3_norm_mbox_loc_perm <- conv4_3_norm_mbox_loc
I0813 16:40:59.224056  1670 net.cpp:408] conv4_3_norm_mbox_loc_perm -> conv4_3_norm_mbox_loc_perm
I0813 16:40:59.224158  1670 net.cpp:150] Setting up conv4_3_norm_mbox_loc_perm
I0813 16:40:59.224162  1670 net.cpp:157] Top shape: 8 38 38 16 (184832)
I0813 16:40:59.224170  1670 net.cpp:165] Memory required for data: 1978355744
I0813 16:40:59.224174  1670 layer_factory.hpp:77] Creating layer conv4_3_norm_mbox_loc_flat
I0813 16:40:59.224177  1670 net.cpp:100] Creating Layer conv4_3_norm_mbox_loc_flat
I0813 16:40:59.224179  1670 net.cpp:434] conv4_3_norm_mbox_loc_flat <- conv4_3_norm_mbox_loc_perm
I0813 16:40:59.224182  1670 net.cpp:408] conv4_3_norm_mbox_loc_flat -> conv4_3_norm_mbox_loc_flat
I0813 16:40:59.224210  1670 net.cpp:150] Setting up conv4_3_norm_mbox_loc_flat
I0813 16:40:59.224216  1670 net.cpp:157] Top shape: 8 23104 (184832)
I0813 16:40:59.224218  1670 net.cpp:165] Memory required for data: 1979095072
I0813 16:40:59.224220  1670 layer_factory.hpp:77] Creating layer conv4_3_norm_mbox_conf
I0813 16:40:59.224229  1670 net.cpp:100] Creating Layer conv4_3_norm_mbox_conf
I0813 16:40:59.224233  1670 net.cpp:434] conv4_3_norm_mbox_conf <- conv4_3_norm_conv4_3_norm_0_split_1
I0813 16:40:59.224236  1670 net.cpp:408] conv4_3_norm_mbox_conf -> conv4_3_norm_mbox_conf
I0813 16:40:59.227407  1670 net.cpp:150] Setting up conv4_3_norm_mbox_conf
I0813 16:40:59.227416  1670 net.cpp:157] Top shape: 8 92 38 38 (1062784)
I0813 16:40:59.227419  1670 net.cpp:165] Memory required for data: 1983346208
I0813 16:40:59.227425  1670 layer_factory.hpp:77] Creating layer conv4_3_norm_mbox_conf_perm
I0813 16:40:59.227430  1670 net.cpp:100] Creating Layer conv4_3_norm_mbox_conf_perm
I0813 16:40:59.227432  1670 net.cpp:434] conv4_3_norm_mbox_conf_perm <- conv4_3_norm_mbox_conf
I0813 16:40:59.227437  1670 net.cpp:408] conv4_3_norm_mbox_conf_perm -> conv4_3_norm_mbox_conf_perm
I0813 16:40:59.227535  1670 net.cpp:150] Setting up conv4_3_norm_mbox_conf_perm
I0813 16:40:59.227541  1670 net.cpp:157] Top shape: 8 38 38 92 (1062784)
I0813 16:40:59.227542  1670 net.cpp:165] Memory required for data: 1987597344
I0813 16:40:59.227545  1670 layer_factory.hpp:77] Creating layer conv4_3_norm_mbox_conf_flat
I0813 16:40:59.227550  1670 net.cpp:100] Creating Layer conv4_3_norm_mbox_conf_flat
I0813 16:40:59.227551  1670 net.cpp:434] conv4_3_norm_mbox_conf_flat <- conv4_3_norm_mbox_conf_perm
I0813 16:40:59.227555  1670 net.cpp:408] conv4_3_norm_mbox_conf_flat -> conv4_3_norm_mbox_conf_flat
I0813 16:40:59.227576  1670 net.cpp:150] Setting up conv4_3_norm_mbox_conf_flat
I0813 16:40:59.227581  1670 net.cpp:157] Top shape: 8 132848 (1062784)
I0813 16:40:59.227581  1670 net.cpp:165] Memory required for data: 1991848480
I0813 16:40:59.227583  1670 layer_factory.hpp:77] Creating layer conv4_3_norm_mbox_priorbox
I0813 16:40:59.227589  1670 net.cpp:100] Creating Layer conv4_3_norm_mbox_priorbox
I0813 16:40:59.227592  1670 net.cpp:434] conv4_3_norm_mbox_priorbox <- conv4_3_norm_conv4_3_norm_0_split_2
I0813 16:40:59.227596  1670 net.cpp:434] conv4_3_norm_mbox_priorbox <- data_data_0_split_1
I0813 16:40:59.227598  1670 net.cpp:408] conv4_3_norm_mbox_priorbox -> conv4_3_norm_mbox_priorbox
I0813 16:40:59.227622  1670 net.cpp:150] Setting up conv4_3_norm_mbox_priorbox
I0813 16:40:59.227627  1670 net.cpp:157] Top shape: 1 2 23104 (46208)
I0813 16:40:59.227628  1670 net.cpp:165] Memory required for data: 1992033312
I0813 16:40:59.227630  1670 layer_factory.hpp:77] Creating layer fc6_mbox_loc
I0813 16:40:59.227636  1670 net.cpp:100] Creating Layer fc6_mbox_loc
I0813 16:40:59.227640  1670 net.cpp:434] fc6_mbox_loc <- fc6_relu6_0_split_1
I0813 16:40:59.227644  1670 net.cpp:408] fc6_mbox_loc -> fc6_mbox_loc
I0813 16:40:59.229750  1670 net.cpp:150] Setting up fc6_mbox_loc
I0813 16:40:59.229759  1670 net.cpp:157] Top shape: 8 24 19 19 (69312)
I0813 16:40:59.229761  1670 net.cpp:165] Memory required for data: 1992310560
I0813 16:40:59.229765  1670 layer_factory.hpp:77] Creating layer fc6_mbox_loc_perm
I0813 16:40:59.229770  1670 net.cpp:100] Creating Layer fc6_mbox_loc_perm
I0813 16:40:59.229774  1670 net.cpp:434] fc6_mbox_loc_perm <- fc6_mbox_loc
I0813 16:40:59.229777  1670 net.cpp:408] fc6_mbox_loc_perm -> fc6_mbox_loc_perm
I0813 16:40:59.229877  1670 net.cpp:150] Setting up fc6_mbox_loc_perm
I0813 16:40:59.229882  1670 net.cpp:157] Top shape: 8 19 19 24 (69312)
I0813 16:40:59.229892  1670 net.cpp:165] Memory required for data: 1992587808
I0813 16:40:59.229893  1670 layer_factory.hpp:77] Creating layer fc6_mbox_loc_flat
I0813 16:40:59.229897  1670 net.cpp:100] Creating Layer fc6_mbox_loc_flat
I0813 16:40:59.229899  1670 net.cpp:434] fc6_mbox_loc_flat <- fc6_mbox_loc_perm
I0813 16:40:59.229903  1670 net.cpp:408] fc6_mbox_loc_flat -> fc6_mbox_loc_flat
I0813 16:40:59.229924  1670 net.cpp:150] Setting up fc6_mbox_loc_flat
I0813 16:40:59.229928  1670 net.cpp:157] Top shape: 8 8664 (69312)
I0813 16:40:59.229930  1670 net.cpp:165] Memory required for data: 1992865056
I0813 16:40:59.229933  1670 layer_factory.hpp:77] Creating layer fc6_mbox_conf
I0813 16:40:59.229940  1670 net.cpp:100] Creating Layer fc6_mbox_conf
I0813 16:40:59.229944  1670 net.cpp:434] fc6_mbox_conf <- fc6_relu6_0_split_2
I0813 16:40:59.229949  1670 net.cpp:408] fc6_mbox_conf -> fc6_mbox_conf
I0813 16:40:59.236399  1670 net.cpp:150] Setting up fc6_mbox_conf
I0813 16:40:59.236416  1670 net.cpp:157] Top shape: 8 138 19 19 (398544)
I0813 16:40:59.236419  1670 net.cpp:165] Memory required for data: 1994459232
I0813 16:40:59.236428  1670 layer_factory.hpp:77] Creating layer fc6_mbox_conf_perm
I0813 16:40:59.236436  1670 net.cpp:100] Creating Layer fc6_mbox_conf_perm
I0813 16:40:59.236439  1670 net.cpp:434] fc6_mbox_conf_perm <- fc6_mbox_conf
I0813 16:40:59.236444  1670 net.cpp:408] fc6_mbox_conf_perm -> fc6_mbox_conf_perm
I0813 16:40:59.236548  1670 net.cpp:150] Setting up fc6_mbox_conf_perm
I0813 16:40:59.236554  1670 net.cpp:157] Top shape: 8 19 19 138 (398544)
I0813 16:40:59.236557  1670 net.cpp:165] Memory required for data: 1996053408
I0813 16:40:59.236558  1670 layer_factory.hpp:77] Creating layer fc6_mbox_conf_flat
I0813 16:40:59.236562  1670 net.cpp:100] Creating Layer fc6_mbox_conf_flat
I0813 16:40:59.236565  1670 net.cpp:434] fc6_mbox_conf_flat <- fc6_mbox_conf_perm
I0813 16:40:59.236569  1670 net.cpp:408] fc6_mbox_conf_flat -> fc6_mbox_conf_flat
I0813 16:40:59.236591  1670 net.cpp:150] Setting up fc6_mbox_conf_flat
I0813 16:40:59.236595  1670 net.cpp:157] Top shape: 8 49818 (398544)
I0813 16:40:59.236598  1670 net.cpp:165] Memory required for data: 1997647584
I0813 16:40:59.236600  1670 layer_factory.hpp:77] Creating layer fc6_mbox_priorbox
I0813 16:40:59.236605  1670 net.cpp:100] Creating Layer fc6_mbox_priorbox
I0813 16:40:59.236608  1670 net.cpp:434] fc6_mbox_priorbox <- fc6_relu6_0_split_3
I0813 16:40:59.236611  1670 net.cpp:434] fc6_mbox_priorbox <- data_data_0_split_2
I0813 16:40:59.236615  1670 net.cpp:408] fc6_mbox_priorbox -> fc6_mbox_priorbox
I0813 16:40:59.236641  1670 net.cpp:150] Setting up fc6_mbox_priorbox
I0813 16:40:59.236646  1670 net.cpp:157] Top shape: 1 2 8664 (17328)
I0813 16:40:59.236650  1670 net.cpp:165] Memory required for data: 1997716896
I0813 16:40:59.236654  1670 layer_factory.hpp:77] Creating layer conv6_2_mbox_loc
I0813 16:40:59.236665  1670 net.cpp:100] Creating Layer conv6_2_mbox_loc
I0813 16:40:59.236668  1670 net.cpp:434] conv6_2_mbox_loc <- conv6_2_conv6_2_relu_0_split_1
I0813 16:40:59.236675  1670 net.cpp:408] conv6_2_mbox_loc -> conv6_2_mbox_loc
I0813 16:40:59.238425  1670 net.cpp:150] Setting up conv6_2_mbox_loc
I0813 16:40:59.238435  1670 net.cpp:157] Top shape: 8 24 10 10 (19200)
I0813 16:40:59.238440  1670 net.cpp:165] Memory required for data: 1997793696
I0813 16:40:59.238447  1670 layer_factory.hpp:77] Creating layer conv6_2_mbox_loc_perm
I0813 16:40:59.238452  1670 net.cpp:100] Creating Layer conv6_2_mbox_loc_perm
I0813 16:40:59.238456  1670 net.cpp:434] conv6_2_mbox_loc_perm <- conv6_2_mbox_loc
I0813 16:40:59.238463  1670 net.cpp:408] conv6_2_mbox_loc_perm -> conv6_2_mbox_loc_perm
I0813 16:40:59.238572  1670 net.cpp:150] Setting up conv6_2_mbox_loc_perm
I0813 16:40:59.238577  1670 net.cpp:157] Top shape: 8 10 10 24 (19200)
I0813 16:40:59.238581  1670 net.cpp:165] Memory required for data: 1997870496
I0813 16:40:59.238584  1670 layer_factory.hpp:77] Creating layer conv6_2_mbox_loc_flat
I0813 16:40:59.238589  1670 net.cpp:100] Creating Layer conv6_2_mbox_loc_flat
I0813 16:40:59.238600  1670 net.cpp:434] conv6_2_mbox_loc_flat <- conv6_2_mbox_loc_perm
I0813 16:40:59.238606  1670 net.cpp:408] conv6_2_mbox_loc_flat -> conv6_2_mbox_loc_flat
I0813 16:40:59.238631  1670 net.cpp:150] Setting up conv6_2_mbox_loc_flat
I0813 16:40:59.238636  1670 net.cpp:157] Top shape: 8 2400 (19200)
I0813 16:40:59.238641  1670 net.cpp:165] Memory required for data: 1997947296
I0813 16:40:59.238643  1670 layer_factory.hpp:77] Creating layer conv6_2_mbox_conf
I0813 16:40:59.238652  1670 net.cpp:100] Creating Layer conv6_2_mbox_conf
I0813 16:40:59.238656  1670 net.cpp:434] conv6_2_mbox_conf <- conv6_2_conv6_2_relu_0_split_2
I0813 16:40:59.238662  1670 net.cpp:408] conv6_2_mbox_conf -> conv6_2_mbox_conf
I0813 16:40:59.242635  1670 net.cpp:150] Setting up conv6_2_mbox_conf
I0813 16:40:59.242647  1670 net.cpp:157] Top shape: 8 138 10 10 (110400)
I0813 16:40:59.242650  1670 net.cpp:165] Memory required for data: 1998388896
I0813 16:40:59.242656  1670 layer_factory.hpp:77] Creating layer conv6_2_mbox_conf_perm
I0813 16:40:59.242661  1670 net.cpp:100] Creating Layer conv6_2_mbox_conf_perm
I0813 16:40:59.242664  1670 net.cpp:434] conv6_2_mbox_conf_perm <- conv6_2_mbox_conf
I0813 16:40:59.242669  1670 net.cpp:408] conv6_2_mbox_conf_perm -> conv6_2_mbox_conf_perm
I0813 16:40:59.242789  1670 net.cpp:150] Setting up conv6_2_mbox_conf_perm
I0813 16:40:59.242796  1670 net.cpp:157] Top shape: 8 10 10 138 (110400)
I0813 16:40:59.242799  1670 net.cpp:165] Memory required for data: 1998830496
I0813 16:40:59.242802  1670 layer_factory.hpp:77] Creating layer conv6_2_mbox_conf_flat
I0813 16:40:59.242808  1670 net.cpp:100] Creating Layer conv6_2_mbox_conf_flat
I0813 16:40:59.242811  1670 net.cpp:434] conv6_2_mbox_conf_flat <- conv6_2_mbox_conf_perm
I0813 16:40:59.242817  1670 net.cpp:408] conv6_2_mbox_conf_flat -> conv6_2_mbox_conf_flat
I0813 16:40:59.242842  1670 net.cpp:150] Setting up conv6_2_mbox_conf_flat
I0813 16:40:59.242847  1670 net.cpp:157] Top shape: 8 13800 (110400)
I0813 16:40:59.242849  1670 net.cpp:165] Memory required for data: 1999272096
I0813 16:40:59.242851  1670 layer_factory.hpp:77] Creating layer conv6_2_mbox_priorbox
I0813 16:40:59.242859  1670 net.cpp:100] Creating Layer conv6_2_mbox_priorbox
I0813 16:40:59.242862  1670 net.cpp:434] conv6_2_mbox_priorbox <- conv6_2_conv6_2_relu_0_split_3
I0813 16:40:59.242866  1670 net.cpp:434] conv6_2_mbox_priorbox <- data_data_0_split_3
I0813 16:40:59.242872  1670 net.cpp:408] conv6_2_mbox_priorbox -> conv6_2_mbox_priorbox
I0813 16:40:59.242898  1670 net.cpp:150] Setting up conv6_2_mbox_priorbox
I0813 16:40:59.242903  1670 net.cpp:157] Top shape: 1 2 2400 (4800)
I0813 16:40:59.242904  1670 net.cpp:165] Memory required for data: 1999291296
I0813 16:40:59.242908  1670 layer_factory.hpp:77] Creating layer conv7_2_mbox_loc
I0813 16:40:59.242916  1670 net.cpp:100] Creating Layer conv7_2_mbox_loc
I0813 16:40:59.242919  1670 net.cpp:434] conv7_2_mbox_loc <- conv7_2_conv7_2_relu_0_split_1
I0813 16:40:59.242924  1670 net.cpp:408] conv7_2_mbox_loc -> conv7_2_mbox_loc
I0813 16:40:59.244397  1670 net.cpp:150] Setting up conv7_2_mbox_loc
I0813 16:40:59.244406  1670 net.cpp:157] Top shape: 8 24 5 5 (4800)
I0813 16:40:59.244407  1670 net.cpp:165] Memory required for data: 1999310496
I0813 16:40:59.244412  1670 layer_factory.hpp:77] Creating layer conv7_2_mbox_loc_perm
I0813 16:40:59.244417  1670 net.cpp:100] Creating Layer conv7_2_mbox_loc_perm
I0813 16:40:59.244421  1670 net.cpp:434] conv7_2_mbox_loc_perm <- conv7_2_mbox_loc
I0813 16:40:59.244423  1670 net.cpp:408] conv7_2_mbox_loc_perm -> conv7_2_mbox_loc_perm
I0813 16:40:59.244529  1670 net.cpp:150] Setting up conv7_2_mbox_loc_perm
I0813 16:40:59.244534  1670 net.cpp:157] Top shape: 8 5 5 24 (4800)
I0813 16:40:59.244535  1670 net.cpp:165] Memory required for data: 1999329696
I0813 16:40:59.244537  1670 layer_factory.hpp:77] Creating layer conv7_2_mbox_loc_flat
I0813 16:40:59.244541  1670 net.cpp:100] Creating Layer conv7_2_mbox_loc_flat
I0813 16:40:59.244544  1670 net.cpp:434] conv7_2_mbox_loc_flat <- conv7_2_mbox_loc_perm
I0813 16:40:59.244554  1670 net.cpp:408] conv7_2_mbox_loc_flat -> conv7_2_mbox_loc_flat
I0813 16:40:59.244577  1670 net.cpp:150] Setting up conv7_2_mbox_loc_flat
I0813 16:40:59.244582  1670 net.cpp:157] Top shape: 8 600 (4800)
I0813 16:40:59.244583  1670 net.cpp:165] Memory required for data: 1999348896
I0813 16:40:59.244586  1670 layer_factory.hpp:77] Creating layer conv7_2_mbox_conf
I0813 16:40:59.244592  1670 net.cpp:100] Creating Layer conv7_2_mbox_conf
I0813 16:40:59.244594  1670 net.cpp:434] conv7_2_mbox_conf <- conv7_2_conv7_2_relu_0_split_2
I0813 16:40:59.244598  1670 net.cpp:408] conv7_2_mbox_conf -> conv7_2_mbox_conf
I0813 16:40:59.247426  1670 net.cpp:150] Setting up conv7_2_mbox_conf
I0813 16:40:59.247436  1670 net.cpp:157] Top shape: 8 138 5 5 (27600)
I0813 16:40:59.247437  1670 net.cpp:165] Memory required for data: 1999459296
I0813 16:40:59.247443  1670 layer_factory.hpp:77] Creating layer conv7_2_mbox_conf_perm
I0813 16:40:59.247450  1670 net.cpp:100] Creating Layer conv7_2_mbox_conf_perm
I0813 16:40:59.247457  1670 net.cpp:434] conv7_2_mbox_conf_perm <- conv7_2_mbox_conf
I0813 16:40:59.247462  1670 net.cpp:408] conv7_2_mbox_conf_perm -> conv7_2_mbox_conf_perm
I0813 16:40:59.247570  1670 net.cpp:150] Setting up conv7_2_mbox_conf_perm
I0813 16:40:59.247577  1670 net.cpp:157] Top shape: 8 5 5 138 (27600)
I0813 16:40:59.247579  1670 net.cpp:165] Memory required for data: 1999569696
I0813 16:40:59.247582  1670 layer_factory.hpp:77] Creating layer conv7_2_mbox_conf_flat
I0813 16:40:59.247587  1670 net.cpp:100] Creating Layer conv7_2_mbox_conf_flat
I0813 16:40:59.247591  1670 net.cpp:434] conv7_2_mbox_conf_flat <- conv7_2_mbox_conf_perm
I0813 16:40:59.247596  1670 net.cpp:408] conv7_2_mbox_conf_flat -> conv7_2_mbox_conf_flat
I0813 16:40:59.247618  1670 net.cpp:150] Setting up conv7_2_mbox_conf_flat
I0813 16:40:59.247624  1670 net.cpp:157] Top shape: 8 3450 (27600)
I0813 16:40:59.247627  1670 net.cpp:165] Memory required for data: 1999680096
I0813 16:40:59.247629  1670 layer_factory.hpp:77] Creating layer conv7_2_mbox_priorbox
I0813 16:40:59.247635  1670 net.cpp:100] Creating Layer conv7_2_mbox_priorbox
I0813 16:40:59.247638  1670 net.cpp:434] conv7_2_mbox_priorbox <- conv7_2_conv7_2_relu_0_split_3
I0813 16:40:59.247643  1670 net.cpp:434] conv7_2_mbox_priorbox <- data_data_0_split_4
I0813 16:40:59.247650  1670 net.cpp:408] conv7_2_mbox_priorbox -> conv7_2_mbox_priorbox
I0813 16:40:59.247676  1670 net.cpp:150] Setting up conv7_2_mbox_priorbox
I0813 16:40:59.247683  1670 net.cpp:157] Top shape: 1 2 600 (1200)
I0813 16:40:59.247684  1670 net.cpp:165] Memory required for data: 1999684896
I0813 16:40:59.247686  1670 layer_factory.hpp:77] Creating layer conv8_2_mbox_loc
I0813 16:40:59.247694  1670 net.cpp:100] Creating Layer conv8_2_mbox_loc
I0813 16:40:59.247699  1670 net.cpp:434] conv8_2_mbox_loc <- conv8_2_conv8_2_relu_0_split_1
I0813 16:40:59.247704  1670 net.cpp:408] conv8_2_mbox_loc -> conv8_2_mbox_loc
I0813 16:40:59.249233  1670 net.cpp:150] Setting up conv8_2_mbox_loc
I0813 16:40:59.249241  1670 net.cpp:157] Top shape: 8 16 3 3 (1152)
I0813 16:40:59.249243  1670 net.cpp:165] Memory required for data: 1999689504
I0813 16:40:59.249254  1670 layer_factory.hpp:77] Creating layer conv8_2_mbox_loc_perm
I0813 16:40:59.249259  1670 net.cpp:100] Creating Layer conv8_2_mbox_loc_perm
I0813 16:40:59.249261  1670 net.cpp:434] conv8_2_mbox_loc_perm <- conv8_2_mbox_loc
I0813 16:40:59.249267  1670 net.cpp:408] conv8_2_mbox_loc_perm -> conv8_2_mbox_loc_perm
I0813 16:40:59.249373  1670 net.cpp:150] Setting up conv8_2_mbox_loc_perm
I0813 16:40:59.249378  1670 net.cpp:157] Top shape: 8 3 3 16 (1152)
I0813 16:40:59.249380  1670 net.cpp:165] Memory required for data: 1999694112
I0813 16:40:59.249382  1670 layer_factory.hpp:77] Creating layer conv8_2_mbox_loc_flat
I0813 16:40:59.249387  1670 net.cpp:100] Creating Layer conv8_2_mbox_loc_flat
I0813 16:40:59.249389  1670 net.cpp:434] conv8_2_mbox_loc_flat <- conv8_2_mbox_loc_perm
I0813 16:40:59.249392  1670 net.cpp:408] conv8_2_mbox_loc_flat -> conv8_2_mbox_loc_flat
I0813 16:40:59.249421  1670 net.cpp:150] Setting up conv8_2_mbox_loc_flat
I0813 16:40:59.249428  1670 net.cpp:157] Top shape: 8 144 (1152)
I0813 16:40:59.249428  1670 net.cpp:165] Memory required for data: 1999698720
I0813 16:40:59.249430  1670 layer_factory.hpp:77] Creating layer conv8_2_mbox_conf
I0813 16:40:59.249438  1670 net.cpp:100] Creating Layer conv8_2_mbox_conf
I0813 16:40:59.249439  1670 net.cpp:434] conv8_2_mbox_conf <- conv8_2_conv8_2_relu_0_split_2
I0813 16:40:59.249444  1670 net.cpp:408] conv8_2_mbox_conf -> conv8_2_mbox_conf
I0813 16:40:59.251566  1670 net.cpp:150] Setting up conv8_2_mbox_conf
I0813 16:40:59.251574  1670 net.cpp:157] Top shape: 8 92 3 3 (6624)
I0813 16:40:59.251577  1670 net.cpp:165] Memory required for data: 1999725216
I0813 16:40:59.251582  1670 layer_factory.hpp:77] Creating layer conv8_2_mbox_conf_perm
I0813 16:40:59.251590  1670 net.cpp:100] Creating Layer conv8_2_mbox_conf_perm
I0813 16:40:59.251595  1670 net.cpp:434] conv8_2_mbox_conf_perm <- conv8_2_mbox_conf
I0813 16:40:59.251600  1670 net.cpp:408] conv8_2_mbox_conf_perm -> conv8_2_mbox_conf_perm
I0813 16:40:59.251709  1670 net.cpp:150] Setting up conv8_2_mbox_conf_perm
I0813 16:40:59.251714  1670 net.cpp:157] Top shape: 8 3 3 92 (6624)
I0813 16:40:59.251716  1670 net.cpp:165] Memory required for data: 1999751712
I0813 16:40:59.251719  1670 layer_factory.hpp:77] Creating layer conv8_2_mbox_conf_flat
I0813 16:40:59.251725  1670 net.cpp:100] Creating Layer conv8_2_mbox_conf_flat
I0813 16:40:59.251730  1670 net.cpp:434] conv8_2_mbox_conf_flat <- conv8_2_mbox_conf_perm
I0813 16:40:59.251734  1670 net.cpp:408] conv8_2_mbox_conf_flat -> conv8_2_mbox_conf_flat
I0813 16:40:59.251760  1670 net.cpp:150] Setting up conv8_2_mbox_conf_flat
I0813 16:40:59.251765  1670 net.cpp:157] Top shape: 8 828 (6624)
I0813 16:40:59.251767  1670 net.cpp:165] Memory required for data: 1999778208
I0813 16:40:59.251768  1670 layer_factory.hpp:77] Creating layer conv8_2_mbox_priorbox
I0813 16:40:59.251775  1670 net.cpp:100] Creating Layer conv8_2_mbox_priorbox
I0813 16:40:59.251778  1670 net.cpp:434] conv8_2_mbox_priorbox <- conv8_2_conv8_2_relu_0_split_3
I0813 16:40:59.251782  1670 net.cpp:434] conv8_2_mbox_priorbox <- data_data_0_split_5
I0813 16:40:59.251787  1670 net.cpp:408] conv8_2_mbox_priorbox -> conv8_2_mbox_priorbox
I0813 16:40:59.251816  1670 net.cpp:150] Setting up conv8_2_mbox_priorbox
I0813 16:40:59.251821  1670 net.cpp:157] Top shape: 1 2 144 (288)
I0813 16:40:59.251821  1670 net.cpp:165] Memory required for data: 1999779360
I0813 16:40:59.251823  1670 layer_factory.hpp:77] Creating layer conv9_2_mbox_loc
I0813 16:40:59.251832  1670 net.cpp:100] Creating Layer conv9_2_mbox_loc
I0813 16:40:59.251837  1670 net.cpp:434] conv9_2_mbox_loc <- conv9_2_conv9_2_relu_0_split_0
I0813 16:40:59.251842  1670 net.cpp:408] conv9_2_mbox_loc -> conv9_2_mbox_loc
I0813 16:40:59.253381  1670 net.cpp:150] Setting up conv9_2_mbox_loc
I0813 16:40:59.253388  1670 net.cpp:157] Top shape: 8 16 1 1 (128)
I0813 16:40:59.253391  1670 net.cpp:165] Memory required for data: 1999779872
I0813 16:40:59.253396  1670 layer_factory.hpp:77] Creating layer conv9_2_mbox_loc_perm
I0813 16:40:59.253399  1670 net.cpp:100] Creating Layer conv9_2_mbox_loc_perm
I0813 16:40:59.253402  1670 net.cpp:434] conv9_2_mbox_loc_perm <- conv9_2_mbox_loc
I0813 16:40:59.253408  1670 net.cpp:408] conv9_2_mbox_loc_perm -> conv9_2_mbox_loc_perm
I0813 16:40:59.253513  1670 net.cpp:150] Setting up conv9_2_mbox_loc_perm
I0813 16:40:59.253518  1670 net.cpp:157] Top shape: 8 1 1 16 (128)
I0813 16:40:59.253520  1670 net.cpp:165] Memory required for data: 1999780384
I0813 16:40:59.253522  1670 layer_factory.hpp:77] Creating layer conv9_2_mbox_loc_flat
I0813 16:40:59.253527  1670 net.cpp:100] Creating Layer conv9_2_mbox_loc_flat
I0813 16:40:59.253530  1670 net.cpp:434] conv9_2_mbox_loc_flat <- conv9_2_mbox_loc_perm
I0813 16:40:59.253532  1670 net.cpp:408] conv9_2_mbox_loc_flat -> conv9_2_mbox_loc_flat
I0813 16:40:59.253556  1670 net.cpp:150] Setting up conv9_2_mbox_loc_flat
I0813 16:40:59.253561  1670 net.cpp:157] Top shape: 8 16 (128)
I0813 16:40:59.253569  1670 net.cpp:165] Memory required for data: 1999780896
I0813 16:40:59.253572  1670 layer_factory.hpp:77] Creating layer conv9_2_mbox_conf
I0813 16:40:59.253582  1670 net.cpp:100] Creating Layer conv9_2_mbox_conf
I0813 16:40:59.253584  1670 net.cpp:434] conv9_2_mbox_conf <- conv9_2_conv9_2_relu_0_split_1
I0813 16:40:59.253592  1670 net.cpp:408] conv9_2_mbox_conf -> conv9_2_mbox_conf
I0813 16:40:59.255693  1670 net.cpp:150] Setting up conv9_2_mbox_conf
I0813 16:40:59.255703  1670 net.cpp:157] Top shape: 8 92 1 1 (736)
I0813 16:40:59.255705  1670 net.cpp:165] Memory required for data: 1999783840
I0813 16:40:59.255712  1670 layer_factory.hpp:77] Creating layer conv9_2_mbox_conf_perm
I0813 16:40:59.255719  1670 net.cpp:100] Creating Layer conv9_2_mbox_conf_perm
I0813 16:40:59.255722  1670 net.cpp:434] conv9_2_mbox_conf_perm <- conv9_2_mbox_conf
I0813 16:40:59.255729  1670 net.cpp:408] conv9_2_mbox_conf_perm -> conv9_2_mbox_conf_perm
I0813 16:40:59.255841  1670 net.cpp:150] Setting up conv9_2_mbox_conf_perm
I0813 16:40:59.255846  1670 net.cpp:157] Top shape: 8 1 1 92 (736)
I0813 16:40:59.255848  1670 net.cpp:165] Memory required for data: 1999786784
I0813 16:40:59.255851  1670 layer_factory.hpp:77] Creating layer conv9_2_mbox_conf_flat
I0813 16:40:59.255856  1670 net.cpp:100] Creating Layer conv9_2_mbox_conf_flat
I0813 16:40:59.255859  1670 net.cpp:434] conv9_2_mbox_conf_flat <- conv9_2_mbox_conf_perm
I0813 16:40:59.255864  1670 net.cpp:408] conv9_2_mbox_conf_flat -> conv9_2_mbox_conf_flat
I0813 16:40:59.255888  1670 net.cpp:150] Setting up conv9_2_mbox_conf_flat
I0813 16:40:59.255892  1670 net.cpp:157] Top shape: 8 92 (736)
I0813 16:40:59.255894  1670 net.cpp:165] Memory required for data: 1999789728
I0813 16:40:59.255897  1670 layer_factory.hpp:77] Creating layer conv9_2_mbox_priorbox
I0813 16:40:59.255903  1670 net.cpp:100] Creating Layer conv9_2_mbox_priorbox
I0813 16:40:59.255906  1670 net.cpp:434] conv9_2_mbox_priorbox <- conv9_2_conv9_2_relu_0_split_2
I0813 16:40:59.255909  1670 net.cpp:434] conv9_2_mbox_priorbox <- data_data_0_split_6
I0813 16:40:59.255916  1670 net.cpp:408] conv9_2_mbox_priorbox -> conv9_2_mbox_priorbox
I0813 16:40:59.255940  1670 net.cpp:150] Setting up conv9_2_mbox_priorbox
I0813 16:40:59.255945  1670 net.cpp:157] Top shape: 1 2 16 (32)
I0813 16:40:59.255946  1670 net.cpp:165] Memory required for data: 1999789856
I0813 16:40:59.255949  1670 layer_factory.hpp:77] Creating layer mbox_loc
I0813 16:40:59.255955  1670 net.cpp:100] Creating Layer mbox_loc
I0813 16:40:59.255959  1670 net.cpp:434] mbox_loc <- conv4_3_norm_mbox_loc_flat
I0813 16:40:59.255962  1670 net.cpp:434] mbox_loc <- fc6_mbox_loc_flat
I0813 16:40:59.255967  1670 net.cpp:434] mbox_loc <- conv6_2_mbox_loc_flat
I0813 16:40:59.255971  1670 net.cpp:434] mbox_loc <- conv7_2_mbox_loc_flat
I0813 16:40:59.255975  1670 net.cpp:434] mbox_loc <- conv8_2_mbox_loc_flat
I0813 16:40:59.255980  1670 net.cpp:434] mbox_loc <- conv9_2_mbox_loc_flat
I0813 16:40:59.255986  1670 net.cpp:408] mbox_loc -> mbox_loc
I0813 16:40:59.256011  1670 net.cpp:150] Setting up mbox_loc
I0813 16:40:59.256016  1670 net.cpp:157] Top shape: 8 34928 (279424)
I0813 16:40:59.256018  1670 net.cpp:165] Memory required for data: 2000907552
I0813 16:40:59.256022  1670 layer_factory.hpp:77] Creating layer mbox_conf
I0813 16:40:59.256028  1670 net.cpp:100] Creating Layer mbox_conf
I0813 16:40:59.256031  1670 net.cpp:434] mbox_conf <- conv4_3_norm_mbox_conf_flat
I0813 16:40:59.256036  1670 net.cpp:434] mbox_conf <- fc6_mbox_conf_flat
I0813 16:40:59.256039  1670 net.cpp:434] mbox_conf <- conv6_2_mbox_conf_flat
I0813 16:40:59.256043  1670 net.cpp:434] mbox_conf <- conv7_2_mbox_conf_flat
I0813 16:40:59.256045  1670 net.cpp:434] mbox_conf <- conv8_2_mbox_conf_flat
I0813 16:40:59.256048  1670 net.cpp:434] mbox_conf <- conv9_2_mbox_conf_flat
I0813 16:40:59.256052  1670 net.cpp:408] mbox_conf -> mbox_conf
I0813 16:40:59.256073  1670 net.cpp:150] Setting up mbox_conf
I0813 16:40:59.256078  1670 net.cpp:157] Top shape: 8 200836 (1606688)
I0813 16:40:59.256085  1670 net.cpp:165] Memory required for data: 2007334304
I0813 16:40:59.256088  1670 layer_factory.hpp:77] Creating layer mbox_priorbox
I0813 16:40:59.256093  1670 net.cpp:100] Creating Layer mbox_priorbox
I0813 16:40:59.256095  1670 net.cpp:434] mbox_priorbox <- conv4_3_norm_mbox_priorbox
I0813 16:40:59.256098  1670 net.cpp:434] mbox_priorbox <- fc6_mbox_priorbox
I0813 16:40:59.256103  1670 net.cpp:434] mbox_priorbox <- conv6_2_mbox_priorbox
I0813 16:40:59.256104  1670 net.cpp:434] mbox_priorbox <- conv7_2_mbox_priorbox
I0813 16:40:59.256108  1670 net.cpp:434] mbox_priorbox <- conv8_2_mbox_priorbox
I0813 16:40:59.256109  1670 net.cpp:434] mbox_priorbox <- conv9_2_mbox_priorbox
I0813 16:40:59.256112  1670 net.cpp:408] mbox_priorbox -> mbox_priorbox
I0813 16:40:59.256134  1670 net.cpp:150] Setting up mbox_priorbox
I0813 16:40:59.256139  1670 net.cpp:157] Top shape: 1 2 34928 (69856)
I0813 16:40:59.256140  1670 net.cpp:165] Memory required for data: 2007613728
I0813 16:40:59.256144  1670 layer_factory.hpp:77] Creating layer mbox_conf_reshape
I0813 16:40:59.256147  1670 net.cpp:100] Creating Layer mbox_conf_reshape
I0813 16:40:59.256150  1670 net.cpp:434] mbox_conf_reshape <- mbox_conf
I0813 16:40:59.256155  1670 net.cpp:408] mbox_conf_reshape -> mbox_conf_reshape
I0813 16:40:59.256184  1670 net.cpp:150] Setting up mbox_conf_reshape
I0813 16:40:59.256189  1670 net.cpp:157] Top shape: 8 8732 23 (1606688)
I0813 16:40:59.256193  1670 net.cpp:165] Memory required for data: 2014040480
I0813 16:40:59.256196  1670 layer_factory.hpp:77] Creating layer mbox_conf_softmax
I0813 16:40:59.256202  1670 net.cpp:100] Creating Layer mbox_conf_softmax
I0813 16:40:59.256206  1670 net.cpp:434] mbox_conf_softmax <- mbox_conf_reshape
I0813 16:40:59.256211  1670 net.cpp:408] mbox_conf_softmax -> mbox_conf_softmax
I0813 16:40:59.256712  1670 net.cpp:150] Setting up mbox_conf_softmax
I0813 16:40:59.256721  1670 net.cpp:157] Top shape: 8 8732 23 (1606688)
I0813 16:40:59.256724  1670 net.cpp:165] Memory required for data: 2020467232
I0813 16:40:59.256726  1670 layer_factory.hpp:77] Creating layer mbox_conf_flatten
I0813 16:40:59.256731  1670 net.cpp:100] Creating Layer mbox_conf_flatten
I0813 16:40:59.256732  1670 net.cpp:434] mbox_conf_flatten <- mbox_conf_softmax
I0813 16:40:59.256737  1670 net.cpp:408] mbox_conf_flatten -> mbox_conf_flatten
I0813 16:40:59.256763  1670 net.cpp:150] Setting up mbox_conf_flatten
I0813 16:40:59.256768  1670 net.cpp:157] Top shape: 8 200836 (1606688)
I0813 16:40:59.256772  1670 net.cpp:165] Memory required for data: 2026893984
I0813 16:40:59.256775  1670 layer_factory.hpp:77] Creating layer detection_out
I0813 16:40:59.256785  1670 net.cpp:100] Creating Layer detection_out
I0813 16:40:59.256788  1670 net.cpp:434] detection_out <- mbox_loc
I0813 16:40:59.256791  1670 net.cpp:434] detection_out <- mbox_conf_flatten
I0813 16:40:59.256794  1670 net.cpp:434] detection_out <- mbox_priorbox
I0813 16:40:59.256798  1670 net.cpp:408] detection_out -> detection_out
W0813 16:40:59.257266  1670 detection_output_layer.cpp:49] Failed to create directory: ./data/results/YUUAV/SSD_300x300/Main
I0813 16:40:59.259686  1670 net.cpp:150] Setting up detection_out
I0813 16:40:59.259694  1670 net.cpp:157] Top shape: 1 1 1 7 (7)
I0813 16:40:59.259696  1670 net.cpp:165] Memory required for data: 2026894012
I0813 16:40:59.259698  1670 layer_factory.hpp:77] Creating layer detection_eval
I0813 16:40:59.259703  1670 net.cpp:100] Creating Layer detection_eval
I0813 16:40:59.259707  1670 net.cpp:434] detection_eval <- detection_out
I0813 16:40:59.259711  1670 net.cpp:434] detection_eval <- label
I0813 16:40:59.259713  1670 net.cpp:408] detection_eval -> detection_eval
I0813 16:40:59.260967  1670 net.cpp:150] Setting up detection_eval
I0813 16:40:59.260973  1670 net.cpp:157] Top shape: 1 1 23 5 (115)
I0813 16:40:59.260975  1670 net.cpp:165] Memory required for data: 2026894472
I0813 16:40:59.260977  1670 net.cpp:228] detection_eval does not need backward computation.
I0813 16:40:59.260980  1670 net.cpp:228] detection_out does not need backward computation.
I0813 16:40:59.260988  1670 net.cpp:228] mbox_conf_flatten does not need backward computation.
I0813 16:40:59.260991  1670 net.cpp:228] mbox_conf_softmax does not need backward computation.
…
